IrisDatasetModel.pt (torch, 2655 bytes, 6 tensors)

fc1.weight f4 [8, 4]
000000 a0 47 74 3d e0 0a 72 3d 92 2c d1 be 76 7a 94 be
       0.05963862 0.059092402 -0.40854317 -0.2899968
000010 fe 50 fc be 30 0d ec be ae 5c fc 3e 90 83 d3 3e
       -0.49280542 -0.4610381 0.4928946 0.41311312
000020 5d 73 31 3f db 44 65 3f 21 4f 0b bf cb 6f 7a bf
       0.69316655 0.8955819 -0.54417616 -0.9782683
000030 b2 5b 91 3e d0 57 26 be 2b 9a 72 bb ce cb 20 3e
       0.2839027 -0.16244435 -0.003701816 0.15702745
000040 6e e7 86 3e 8e 95 92 be 60 02 46 be b8 42 ec be
       0.26348442 -0.28629726 -0.19336843 -0.46144652
000050 b8 72 d8 3d b8 30 bb be dc f9 3c 3f 97 eb 47 3f
       0.10568756 -0.36560607 0.73818755 0.78093857
000060 ba b4 31 3f f2 d0 9b 3d 40 8c 38 3f 6f ba 77 3e
       0.6941639 0.076082125 0.72089005 0.24192213
000070 0e 1d ca 39 ad 7c 17 bf 9f 0e 86 3f 3c 8e 98 3f
       0.0003855009 -0.59174615 1.0473212 1.1918406

fc1.bias f4 [8]
000000 68 59 4c be fa eb 9c 3e 99 63 93 3f 89 c3 c1 be
       -0.19955981 0.30648786 1.151477 -0.37844494
000010 f8 b4 47 be 6d 8e 1d bd 5d 76 35 3f bb 9b 03 bf
       -0.19502628 -0.038465906 0.70883733 -0.514095

fc2.weight f4 [9, 8]
000000 44 5a de 3d 3b 13 86 3e ce 56 3b 3f 19 37 79 be
       0.108570606 0.26186547 0.7317933 -0.24337424
000010 68 eb 14 be 25 45 05 3e fb 02 84 3e d7 92 04 bf
       -0.14542925 0.13014658 0.25783524 -0.5178656
000020 ce ae f5 bd 89 ab af 3e dc c0 62 be c6 e4 68 3e
       -0.11996232 0.34310558 -0.22143883 0.2274352
000030 1a 15 52 3e 2e 9b ad be 7a b3 b4 be 54 5f f0 3d
       0.20515862 -0.33907455 -0.3529318 0.117369324
000040 e2 a1 31 3e 77 74 a0 3e 41 38 d2 be e1 b4 a1 3e
       0.1734691 0.31338856 -0.41058543 0.31583312
000050 ae a5 80 be 19 3b 57 3f 0b 0c d2 3d 8d 54 5f 3f
       -0.25126404 0.8407455 0.10256203 0.8723839
000060 b0 00 1d 3d 06 a2 5f 3e ff 3e 37 3f c7 88 d1 bb
       0.038330734 0.21839151 0.715805 -0.006394479
000070 00 9e 70 3b ca 5b a3 bd ac e8 ab 3e ac 5b e3 be
       0.003671527 -0.07976492 0.33575952 -0.44405878
000080 75 de 36 be 57 8a 2a be 7e c9 44 be 81 23 9a 3e
       -0.17858298 -0.16654335 -0.19217488 0.30105212
000090 0e cb 4c 3e 3c 13 15 3e bc 10 d9 bd 48 df 92 be
       0.19999334 0.14558119 -0.10598895 -0.28685975
0000a0 c0 15 9a 3d 09 41 a7 3e d1 76 ca be 8b f1 a2 be
       0.0752368 0.32666805 -0.39543775 -0.31824908
0000b0 70 63 00 bd 85 b2 19 3f 9d c0 0a 3f 94 c1 3a 3f
       -0.03134483 0.60038024 0.54200155 0.72951627
0000c0 e6 4f 7f be 48 b6 aa be 8b b2 d8 be 63 b8 ce 3c
       -0.24932823 -0.33342195 -0.42323717 0.025234407
0000d0 52 a5 4f 3e 8c 44 52 3f c8 da 0a 3f c6 ac ab 3e
       0.20277908 0.82135844 0.54240084 0.33530253
0000e0 cb 12 b0 be 2a 4c 31 3e 19 e5 7a 3f 47 21 1a 3e
       -0.34389338 0.1731421 0.98005825 0.15051757
0000f0 8d 40 36 be 55 a2 69 be e9 90 fe 3e 3f f5 23 bf
       -0.17798062 -0.22815831 0.49719933 -0.6404609
000100 14 a5 4e be 50 be 84 3d 14 0b d0 be a5 7e 4c be
       -0.2018016 0.06481612 -0.40633452 -0.19970186
000110 e8 67 3b bd 61 c7 13 be be 5d af 3d 70 54 57 bd
       -0.04575339 -0.14431526 0.08562802 -0.05257076

fc2.bias f4 [9]
000000 d0 85 2e 3d c0 0f 0e bd a6 ea 9b be ab 10 39 3f
       0.042608082 -0.03468299 -0.3045246 0.7229106
000010 50 14 a3 3c 2d 18 19 bf 19 94 55 be 8c 32 38 3f
       0.019907147 -0.59802514 -0.20857276 0.7195213
000020 88 32 e7 3b
       0.0070555843

out.weight f4 [3, 9]
000000 4a 43 97 3e dc aa b8 3d e2 13 e6 be e8 ba 3a 3f
       0.29543525 0.09016964 -0.44937044 0.72941446
000010 96 86 ba bd ce 29 0f bf b5 88 94 be 61 05 05 3f
       -0.091077015 -0.55923164 -0.2901055 0.5196133
000020 e9 4a e9 3d 5b ec 9b 3e df e4 95 3e ea f3 a1 3d
       0.11391241 0.30453762 0.29276177 0.07907851
000030 ac 03 94 3e 2c b6 ec 3d 31 06 ed 3d cc d4 b2 3e
       0.2890905 0.11558184 0.115734465 0.34927976
000040 9a 91 4a 3e 39 fe 27 3e f7 e3 43 bf d0 e1 ef 3c
       0.19782105 0.16405572 -0.7651972 0.02928248
000050 63 99 4d 3f 57 80 7a bf e0 64 83 3d f6 25 5a 3f
       0.80312175 -0.9785208 0.06415725 0.85214174
000060 00 66 0c 3f d2 b7 4d bf 57 d9 d1 3c
       0.5484314 -0.8035861 0.025616331

out.bias f4 [3]
000000 a3 42 07 3f 11 c2 8a 3e 66 89 39 bf
       0.52836055 0.27101186 -0.7247528
