TaxiFareClssModel.pt (torch, 113633 bytes, 21 tensors)

embeds.0.weight f4 [24, 12]
00000000: fd15 fe3e 8e64 8dbc 6e39 f1be 1d05 433f
00000010: e52a 313f c7a7 b8be 50c4 b03f 2870 da3d
00000020: 0b07 91bf 27b6 973f 4cd4 d73e 80e9 a2be
00000030: b9c7 14bd 6850 bcbf 7666 4a3d db24 133f
00000040: 2dc6 c4be 15f6 bdbf 03b6 a33f 1b2c 23bf
00000050: 90db 323e 8b20 a23f f4d7 1dbf 7fef 2e3f
00000060: 79aa 803e 2b36 a7bf 26be febe bfb3 a33e
00000070: 39f7 80be edb0 3fbf d6b6 acbf a615 94bf
00000080: 838c 73bf fa18 fe3e 0aa5 76bf 7e9a 563f
00000090: 8c2e a2bf 295e b6be 714b 94bf e3e1 b53f
000000a0: fd4d 83be 270d 3c3e 94d7 023f 2372 473f
000000b0: 4b04 123f a01a 9c3d 8cc7 d33d 9db1 fabd
000000c0: b265 84bf 7b0b 73bf 98ba b23f 70f1 a8bf
000000d0: e2eb 8abe 0c44 c6bf b6f6 adbe 63a2 9b3f
000000e0: 8a3c 063d 2a0b 29bf ab85 543f 0def f33e
000000f0: e4c6 693e 2e84 8bbe 1b1d 313f 1cfc 27c0
00000100: 7404 49be 5a49 13c0 2543 e0bf f6c1 6a3d
00000110: 2333 8ebf 7a53 393f d232 8e3e ede1 563f
00000120: 630c 663e 9fac 8c3f 3eed 1c3f 04c2 1abf
00000130: a52f 10bf 708b 0ebf 7147 0d3f c528 04be
00000140: c791 c73f 96af a8bf ace7 babd dabf 993f
00000150: f3d2 df3f 04ad 07be 38fe a43d de7c 8fbf
00000160: c10c 31bf c4c1 b83c c88a 283f 23c9 a1bf
00000170: 0006 22bf 5c01 86bf 4f96 f2be b32e 8dbf
00000180: b155 26bf 2e79 74bf 2559 2a40 47f0 b03f
00000190: 3166 423d 2232 25bf d2ee 14bf 9734 813e
000001a0: 28cc 003f 1572 a73f 917b 113f b82a 2cbf
000001b0: 193e 8a3f d60f 0a3e 85ee 943f 972a c4bd
000001c0: a5d1 a2bf 1a50 203f 0abf 95be a184 82bf
000001d0: 85d3 663f 4c77 bf3f 7cfb a2bf 02c7 3f3e
000001e0: 7de6 a1be 8219 c93f dbe2 cebe 9d0c cfbe
000001f0: e7ce 263f e217 70bf bbbd 7bbf 415a 313f
00000200: 2c7a fc3e 2e84 05bf 8de2 e5bf 6bc1 0bbf
00000210: c6f1 d63e b2ad 643f 8154 50bf 776c ec3f
00000220: a0d5 5b3f 6291 7b3f e061 703f a9e7 7abf
00000230: f2f5 a8bf 0e48 ffbf 393d 093d 290b 2abf
00000240: bb1c bcbf 447f 8abe 38da 663f 31cd 593f
00000250: 9c33 a83c dd85 893f 8569 7cbf 4636 1440
00000260: 9b2f 8dbe b0f6 ed3e 3c85 ad3f 363c b3bf
00000270: 300e e53f 2799 883e 1148 42bf bb47 81bf
00000280: 94ee 64bf 5a72 33be 5191 773e 87f4 f33e
00000290: 4788 1fbe c241 0a3d 3117 dbbf 5bf2 cfbf
000002a0: 6199 773e c61c b9bf f7fd 883f 6410 7e3f
000002b0: 14d2 dcbf 7c8b 043c cdf1 b13f ea06 90be
000002c0: 504d 8dbf db2f db3e 0fc6 8f3f 1a10 61bf
000002d0: 53d9 903c f3e1 3fbe f37e 5dbd 95eb 2a3e
000002e0: c368 5d3f 91c5 843f 91f3 3dbe 43a0 f4bf
000002f0: 9f12 8a3e 5113 4cbf d21f cdbf 3619 51bf
00000300: 229d aebf cbf8 b1bf 0ac3 e7be a9d1 b4bf
00000310: ef2f 7abf 0b29 083c 7bf3 953f e8b8 e13f
00000320: c0a4 f5bd 25a4 503e 2cea babe e0b7 ecbe
00000330: dfbc adbe f26d 06c0 bde4 6bbf ae8a 9dbf
00000340: f95f 3e3e cc9e da3e 169c c7bf 682b 27be
00000350: e957 41bf 2ac0 f3be da39 afbe faac a03f
00000360: 271c dbbf bc96 41bf a223 f6be d7ee 76bf
00000370: 81e5 573f 3a18 cbbe a96b fa3e aed4 1ebd
00000380: 982c 83bf acc1 553d 371f 94bf 1f59 78bf
00000390: 1b53 c5bf 2a01 ad3e 2ce5 71bf 606f 83be
000003a0: 7cf7 ca3e 38b0 2f3e 228b ff3f b71a 8dbe
000003b0: 10b7 b13f 8e41 debe 8d37 89bc fadd a43f
000003c0: 1dba f0bf 9fd3 2cbf 5447 50bd e165 16bf
000003d0: 53e1 91be a9d9 ca3d 118e 15bf f93c 25c0
000003e0: b902 143f 7eda 223f d051 6abf c6e2 873f
000003f0: 4dea 95bf d0c8 6cbe 952c 8cbf d8f6 8cbe
0.4962615 -0.017259862 -0.47114128 0.7617968 0.69206077 -0.36065504 1.380991 0.10665923
-1.1330274 1.1852463 0.42154157 -0.3181877 -0.036323283 -1.4712038 0.04941412 0.5747811
-0.38432446 -1.4840723 1.278992 -0.63739175 0.17466569 1.2666181 -0.61657643 0.6833419
0.2513006 -1.3063406 -0.49754447 0.31973073 -0.25188616 -0.7487934 -1.3493297 -1.1569107
-0.9513628 0.4962843 -0.9634558 0.83829486 -1.2670455 -0.35618713 -1.1585523 1.420956
-0.25645438 0.18364392 0.51110196 0.77908534 0.570378 0.07622266 0.10340795 -0.12240908
-1.0343535 -0.9493939 1.3963194 -1.3198681 -0.2713309 -1.5489516 -0.33977288 1.2158931
0.03277258 -0.6603266 0.8301646 0.4764332 0.22829777 -0.27249283 0.69185036 -2.6247625
-0.19630605 -2.301352 -1.7520491 0.05731388 -1.1109356 0.72393 0.27773148 0.83938485
0.22465663 1.099018 0.612995 -0.60452294 -0.563227 -0.55681515 0.55187136 -0.12906177
1.5591363 -1.3178585 -0.09126219 1.2011673 1.7486252 -0.13249594 0.08056301 -1.1209981
-0.69160086 0.022553332 0.65836763 -1.2639507 -0.63290405 -1.0469165 -0.473803 -1.1029876
-0.64974505 -0.95497406 2.661691 1.3823327 0.04746074 -0.6452962 -0.5817691 0.25235435
0.5031152 1.308169 0.5682917 -0.67252684 1.0800201 0.13482603 1.163529 -0.09578436
-1.2720228 0.62622225 -0.29247314 -1.0196725 0.90166503 1.4958282 -1.2732997 0.18728259
-0.3162116 1.5710909 -0.40407452 -0.4043931 0.6515946 -0.9378644 -0.9833638 0.6927834
0.4931196 -0.52154815 -1.7959763 -0.5459201 0.41981333 0.8932754 -0.8137894 1.8470601
0.8587284 0.9826871 0.93899345 -0.98009735 -1.3200057 -1.9943864 0.033505652 -0.6642328
-1.4696268 -0.2705022 0.90176725 0.8507872 0.020532422 1.0743977 -0.9859851 2.3158126
-0.27575383 0.4647727 1.3556285 -1.400275 1.7894955 0.26679346 -0.75891215 -1.0100015
-0.8942654 -0.1752409 0.24176528 0.47647497 -0.1557933 0.033754118 -1.7116452 -1.6245836
0.24179603 -1.4461906 1.0702504 0.9924376 -1.7251611 0.008089896 1.3901917 -0.28130275
-1.1039219 0.42809948 1.1232318 -0.87915194 0.017681753 -0.18738537 -0.054076146 0.1669143
0.8648798 1.0372792 -0.18549944 -1.9111408 0.26967332 -0.79716974 -1.6025336 -0.81679094
-1.3641703 -1.390405 -0.4526599 -1.4126483 -0.9772939 0.008310567 1.1714929 1.7634554
-0.11994314 0.20375116 -0.36506784 -0.46234035 -0.3393316 -2.1004605 -0.921459 -1.2307947
0.18591298 0.42699277 -1.5594509 -0.16325152 -0.75524765 -0.47607547 -0.34223825 1.2552788
-1.7117966 -0.7562063 -0.4807406 -0.9645819 0.8433457 -0.3966692 0.48910263 -0.038777046
-1.0247984 0.052186653 -1.1572026 -0.9701099 -1.5415987 0.3378995 -0.94490314 -0.2567091
0.3964194 0.17157066 1.9964335 -0.27559444 1.3883991 -0.4340939 -0.016750121 1.2880242
-1.8806797 -0.6751041 -0.050849274 -0.58749205 -0.2849222 0.09904797 -0.584199 -2.5818465
0.57816654 0.6361464 -0.91531086 1.0616081 -1.1712128 -0.23123479 -1.0951105 -0.27532077

embeds.1.weight f4 [2, 1]
00000000: e5b7 75bd dabe 643e
-0.05998983 0.22338429

embeds.2.weight f4 [7, 4]
00000000: 531c 963e 73a5 ab3e 3317 573f 9640 e3bf
00000010: 08f0 0d3f e772 31bf b96d 943f c881 d33e
00000020: 108a ca3f 78fb afbf 7f45 b8bf 2598 ee3e
00000030: eb16 363f 51dd 93be b79e 01c0 7fd3 d3bf
00000040: d20b 21bf 5193 dbbe 9d77 cc3f 6ea4 153f
00000050: c2be cc3f 923c 04bf 27fc 9fbf 8109 bebe
00000060: 9e38 483f 5425 46bf 8f79 12bf 0c42 1f3e
0.29318485 0.33524665 0.84019774 -1.7754085 0.55444384 -0.6931595 1.1595985 0.41309953
1.5823383 -1.3748617 -1.4396209 0.46600452 0.7112872 -0.2887979 -2.0253122 -1.6548918
-0.6290866 -0.4288583 1.5974003 0.58454025 1.5995715 -0.5165492 -1.2498826 -0.37116626
0.7821139 -0.7740071 -0.57216734 0.15552539

bn_cont.weight f4 [6]
00000000: 7dea 803f 1f8b 923f 56a6 813f 5be4 973f
00000010: 6573 623f af5d 8d3f
1.007156 1.1448706 1.0128887 1.1866564 0.8845733 1.1044215

bn_cont.bias f4 [6]
00000000: 52b4 56bd f473 5a3c d1e6 543d c9bf 383e
00000010: 1bf9 89bd 4af7 3ebe
-0.05241806 0.013333309 0.051977936 0.1804191 -0.06736966 -0.18649021

bn_cont.running_mean f4 [6]
00000000: 6e01 2342 dff3 93c2 f001 2342 d1f2 93c2
00000010: 2aa5 ac3f c0f9 5340
40.751396 -73.97631 40.751892 -73.97425 1.3487904 3.3121185

bn_cont.running_var f4 [6]
00000000: ca29 2e3a 6290 853a 15aa 703a f570 8a3a
00000010: 800b 143f 97c3 3141
0.00066438003 0.0010190124 0.00091806176 0.0010562228 0.5783005 11.110251

layers.0.weight f4 [200, 23]
00000000: 8a2d 11bc 5075 8fbc f2cb 3bbc d771 513c
00000010: 3243 c23b c60e 91bc 4f2b 1a3c b10b 08bc
00000020: 3c72 a9b9 4fd1 0a3a 3252 e1bb b7c0 243c
00000030: 05d1 ec3d e99d 38bc 066a 01bd b642 cfb8
00000040: dc97 88bc 88c4 593a 4ff9 583c 5dc4 223d
00000050: ba0d 52bd df84 abbb c629 a0be 2f18 30bd
00000060: e918 6a3d 0282 823b 098e ed3d bfa8 c2bb
00000070: 8885 4b3c 406d 973c 0557 263d 53c2 8a3d
00000080: 59f2 c93c ccff ccbd 3068 21bd e560 afbd
00000090: 61ae a23d f2ff bebd 267e d63a cf83 9a3c
000000a0: 0158 d8bd 60b7 753d 98a4 f03b 73d5 ebbb
000000b0: 266e 403d bb0d 8e3e e5aa 94bd 427c 90bc
000000c0: 24e3 03bd 7c96 1ebd 353e a1bd 03bb e23c
000000d0: 10af 00bd 264f 3b3c 7350 933c 290c e1bd
000000e0: f6d0 53ba 1955 9abd 40d7 733d 7c4a 1c3d
000000f0: 87a1 b2bd ec76 5dbc 89e0 db3c 7419 09bd
00000100: 110d 53be d4ac 59bd 8209 da3d 4530 843c
00000110: 2807 393e 1420 25be d237 a03d 6309 44bd
00000120: 3305 263e 62d9 fabd 103f 3abe 5578 1abe
00000130: 5ccf fb3c 0f61 71bd 77b9 19be 8a6c 2c3d
00000140: c5d1 783d 5667 c8bc e530 d8bd f393 143e
00000150: 67eb cabd 8d8c 1c3e bc25 153e 8c9d 09be
00000160: ed08 26be 0a71 903c ee3a 3d3e 4b21 27be
00000170: 9453 72bc 6db1 2a3c 0aaa ad3c a51f 0abc
00000180: 1fe5 c0bc cd1f e9bb aefd 23bd c0aa 083d
00000190: e170 413d 68ba 293d a81e 09bd 661e a93c
000001a0: b57c 043d 6614 b33b f1c0 0cbd bef7 693c
000001b0: e78b 8dbc 9ada 2d3e ab86 b3bd ace8 10be
000001c0: 6e33 253d f580 f23c 662d 723e 51c6 c03b
000001d0: e266 8cbd 8fbc c03d fba9 41bd 0afc 113d
000001e0: 63dc bdbc 3de2 1b3d f15e 36bc dcf6 6a3d
000001f0: 3bcf dabd f246 85bd fea6 78bd 1fe4 afbd
00000200: 5a4e 063c 72b5 c3bc 23c6 5ebd dbc0 043e
00000210: 705b f9bd bb5f 81be 53ea e6bd f078 7b3e
00000220: 4e9d e1bd 2ad7 063d e3ec 55bc 1dc8 7bbc
00000230: 902f 6dbc 05a1 08bb 775c 26bb eb20 8bbb
00000240: 53c1 9b3b a6fd 91bb 9ce3 853b b1fc a0bb
00000250: d0ec 813a a243 e83a bb2d 23bd d54b 4e3c
00000260: 4733 07bd 06b3 0c3b 2823 2cbc 6220 a63d
00000270: d57d 11be cc41 83bd 25a5 023e 4792 9cbc
00000280: 034a 91be f4ab d03d 4da5 36bd f449 343e
00000290: 9d5b 8fbd 64a6 223d 30b1 863c 101d a63c
000002a0: c3d1 e8bd 06f8 b03c cd3f bbbd 5ead d33d
000002b0: 71ed fd3d 2508 06be b33f 2c3d 9a25 da3d
000002c0: 9033 a2bd a533 13be 1b8a 1e3e 8b90 87be
000002d0: 2a77 b1bc b2d8 29be 8582 e2bc 232c 09be
000002e0: 5f6e 98bc 351c 353e 6586 14bd dff0 6abe
000002f0: dcd0 a13d 0ea9 e9bd 6ff7 d23c 57ec ad3d
00000300: 9f83 043e afe2 49be 8268 04be b9f1 29bd
00000310: d4ce 2bbd 8365 c5bd 1a29 c5bd 4b11 143e
00000320: ce8d 3bbd cc5d 40bc 45a4 d8bc 8862 a4bd
00000330: eff2 57bc 981e 393e 7ba7 533d 7b41 ee3c
00000340: faeb 2f3b eb43 303d c170 c2bc c16f 50bc
00000350: f940 163d 0598 e23c 040f 2e3c 272b 01bd
00000360: c0b0 96bc 650a 30ba d9a2 3a3d 1990 2e3e
00000370: d377 5cbd b53f 5cbd 3159 273c 2bdd ecbc
00000380: c95a 0a3e 5faf 7abe 2d8d b1bd a732 113e
00000390: faa9 773c f36e 7b3e 027b 5b3d e979 b2bc
000003a0: 1b7f 893d 02e7 3dbd 5976 eb3d da3e 65bd
000003b0: 54fa a23c ae08 b6ba 3296 9a3d 2199 abbd
000003c0: 42a7 04bd e93a 9cbc 03de d93d 1c43 803d
000003d0: e982 563d 03dd 403c b44a cc3c eea6 dcbd
000003e0: d8ec 503e 1aea e43d b029 c2bd 61d0 683d
000003f0: 6c5f 843e 4928 0fbd ea3f c03c ad73 ab3d
-0.008860955 -0.017511994 -0.011462199 0.012783489 0.0059284205 -0.01770724 0.00940974 -0.008303569
-0.00032319303 0.00052954716 -0.0068762535 0.010055712 0.11563305 -0.011268117 -0.031595252 -9.882955e-05
-0.016673975 0.00083071785 0.013243034 0.039738048 -0.051282622 -0.0052343453 -0.3128187 -0.042991813
0.057152662 0.0039827833 0.11599357 -0.0059405263 0.012421973 0.018484712 0.040610332 0.06775346
0.024651693 -0.10009727 -0.039406 -0.08563403 0.079434164 -0.093261614 0.00163645 0.01886168
-0.105636604 0.059989333 0.00734384 -0.007197076 0.046980046 0.2774485 -0.07259158 -0.017637376
-0.03219904 -0.03871773 -0.07873193 0.027677065 -0.031416953 0.011432445 0.017982697 -0.109886475
-0.0008080149 -0.07535762 0.05953145 0.03815697 -0.08722215 -0.013517123 0.026840465 -0.03347154
-0.20610453 -0.053143337 0.10646345 0.016136298 0.18069136 -0.16125518 0.07823147 -0.047860514
0.16212921 -0.12248494 -0.18188119 -0.15084966 0.030738525 -0.058930453 -0.15012155 0.0420957
0.060746927 -0.024463337 -0.10556201 0.14509563 -0.09908181 0.15287991 0.14565176 -0.13439006
-0.16214342 0.017632026 0.18479511 -0.16321294 -0.014790434 0.010418278 0.021199245 -0.008430396
-0.023546753 -0.0071143867 -0.04003685 0.033365965 0.04722679 0.041437536 -0.0334765 0.020644378
0.032345492 0.005465078 -0.03436369 0.014280258 -0.017278625 0.16977921 -0.0876592 -0.14151257
0.04033225 0.029602507 0.2365013 0.005883016 -0.06855561 0.09410965 -0.047281247 0.035640754
-0.023176378 0.038057555 -0.011131034 0.05736433 -0.10684057 -0.06507672 -0.06070613 -0.085884325
0.008197391 -0.02389023 -0.054388177 0.12964194 -0.121756434 -0.2526835 -0.112751625 0.24557853
-0.110163316 0.03292004 -0.0130569665 -0.015367535 -0.014476672 -0.0020847928 -0.0025384703 -0.0042458675
0.0047532707 -0.004455286 0.004085971 -0.0049129357 0.0009912495 0.0017720351 -0.039838534 0.012591322
-0.033007886 0.002146901 -0.010506429 0.08111645 -0.14208157 -0.06409034 0.1275831 -0.01911272
-0.2837678 0.101890475 -0.044591237 0.17606336 -0.06999896 0.039709464 0.016441911 0.02027753
-0.11368134 0.021602642 -0.091430284 0.103358015 0.12398804 -0.13089044 0.042052936 0.10651703
-0.07919991 -0.1437517 0.1548237 -0.26477465 -0.021663267 -0.16586569 -0.027650127 -0.13395743
-0.018607317 0.17686541 -0.03626098 -0.22943448 0.07901165 -0.11409198 0.025752751 0.08492344
0.12940834 -0.19715379 -0.12930492 -0.04149029 -0.041945294 -0.096385024 -0.0962698 0.14459722
-0.045789532 -0.011741113 -0.026445517 -0.08026606 -0.0131804785 0.18078077 0.051673394 0.029083958
0.0026843534 0.04303352 -0.023735406 -0.012721957 0.036683057 0.02766038 0.010623697 -0.031535294
-0.018394828 -0.0006715416 0.04556546 0.17047156 -0.05382521 -0.053771693 0.010214136 -0.028914055
0.13511194 -0.24480961 -0.08669505 0.14179479 0.015116209 0.24554043 0.053584106 -0.021786647
0.067136966 -0.046362884 0.114971824 -0.055968143 0.019894756 -0.0013888085 0.07548179 -0.083788164
-0.032386072 -0.01907106 0.106380485 0.062628 0.05237094 0.011771443 0.024937965 -0.10774027
0.20402849 0.11177464 -0.094806075 0.05683935 0.2585405 -0.03495053 0.023467977 0.08371673

layers.0.bias f4 [200]
00000000: 4414 e33d ad94 9fbd bdd9 18be 7b1e 32bd
00000010: 53c5 cb3d aba2 2abe 0845 0e3e f478 4a3d
00000020: 4452 f8bc c58c 8a3d 7154 4f3e b68d 463a
00000030: b953 793e a716 2bbd 0619 b2bd 1e4a 003d
00000040: 3195 10bd 463c 463e 4687 8a3d b0e5 43bc
00000050: dbc3 ca3d 9a5a 88bc 23ad 4a3d fbe4 6f3b
00000060: 01ba 20bd 8938 0b3e 1ad0 583e 7c77 4cbe
00000070: 2c47 9fbd c947 453e 7bfa 403d eaba 4d3e
00000080: 40da 1c3e b316 033d 8eab 053e f193 3e3e
00000090: 6d57 4f3d 4a5c 6cbd 38fc d93d 737c 623a
000000a0: 7447 b1bc cb8e b93d df40 88be e9de 483e
000000b0: cfee 313e 8752 e23d 7790 9dbd f9ed 16be
000000c0: a0bf 753e 0906 953e 3e9e aebd e5b9 98bd
000000d0: f166 ea3c ec67 3b3e fb19 383d 6f53 f6bd
000000e0: 5a9b 49be 0dab 743d 851f 803d e8da 6cbc
000000f0: 318b 903d 1459 cfbc 89e4 42be 2ea8 583e
00000100: 7784 443d b5b5 e9bd fac6 c93d 6929 0fbe
00000110: 56f5 4b3e 97e6 dabd 88b7 513e e645 c5bd
00000120: b8e3 0f3e fc60 d1bd 84bf cdbd a189 9a3d
00000130: b49a 293e 36ae 3f3d 21be 063e 7d34 d83d
00000140: 6625 013e ef2c 563e 7d8b f73d a648 6bbd
00000150: 587b 0d3e a5c1 65be a197 c2bc 125d b43c
00000160: 33c7 54bd 2d3c 843e 51a0 633c ec76 a7bd
00000170: 38e8 393e 1239 c8bd 8dc1 863d ff01 8dbd
00000180: 12c5 523e fbf8 bc3d d26d 813d 0e4a e4bd
00000190: 7466 e73d 04c3 423e 14e2 553e 5a2d 1c3e
000001a0: 8155 083c 628a 12bd fe9a 973e c3be 323e
000001b0: 9443 25bc fe33 1cbd 4d01 193e 3313 593d
000001c0: 4b9a 2c3d 1d55 98bc 2b3a d03d c490 a7bd
000001d0: a2b9 0b3e 8fbd 0abe 7fd9 c83d f218 d0bd
000001e0: 4416 143e 5f03 90bc ea98 27be 102f d53d
000001f0: f2dd f63d a2bd 35be a76d b93d f1d9 5dbd
00000200: 2eab 56bd 320d 453d 2834 f63d 1017 583e
00000210: 8755 3a3e ae08 a0bb 0079 cdbd a547 8c3e
00000220: 45d1 f93d a057 13bd 8b62 6a3e 96bf 913d
00000230: 9506 6d3e d531 d6bd f040 ab3d e733 053e
00000240: 6f2f a7bc 75cb 123e e8df 243d 4ec9 3b3e
00000250: 0665 3cbc a4b0 363e 601b 6d3e c933 fc3b
00000260: 9200 f6bd 7c7a f9bd 7547 6abc 4539 153e
00000270: d3c7 853d 2858 ab3d c6ae 66bd f5da 163e
00000280: 62c9 d03d 1d73 e43d 5b4c 22be 52a9 923d
00000290: ca4a 73bd dcab cebd 6833 0a3d 0b74 b13d
000002a0: 6141 113e 5107 63be ecd3 90bd 96ad 163e
000002b0: 03ac 1e3e f823 32be 5810 153d 7e43 90bd
000002c0: 26cc 4ebe 6dd4 3b3e 49dc fabd a80b 16be
000002d0: 4157 233e 9353 93bc e676 043e da73 473d
000002e0: 9f7a c33c 2df2 aebd bf48 bb3c 3b72 903c
000002f0: afa1 e03d c455 c03d af4c 30be d04d a33d
00000300: 41c8 c1bd 0847 6a3c 4a9d 2b3e b141 003e
00000310: 6541 80be 2630 dbbd ce18 323e b4f7 553e
0.1108785 -0.077920295 -0.1492681 -0.0434861 0.09949746 -0.16663615 0.13893521 0.049431756
-0.030312665 0.06765131 0.20247056 0.0007574217 0.24348344 -0.04176965 -0.08696179 0.031320684
-0.03529853 0.1935893 0.067640826 -0.011956617 0.09900638 -0.016644765 0.049481522 0.003660499
-0.039239887 0.13595785 0.21173134 -0.19967455 -0.07777247 0.19265665 0.047113877 0.20090833
0.15317631 0.03200407 0.13053724 0.18611123 0.050620485 -0.0577052 0.1064381 0.000863976
-0.021640517 0.09060439 -0.26611993 0.19616283 0.17376254 0.11050897 -0.0769357 -0.14739217
0.2399888 0.29106167 -0.08526276 -0.074573316 0.02861354 0.18301362 0.044946652 -0.120276324
-0.19688168 0.05973344 0.06256012 -0.014456488 0.07057799 -0.02531103 -0.19032492 0.21157905
0.04797789 -0.11411611 0.09852405 -0.1398064 0.19917807 -0.10688513 0.20480168 -0.09632473
0.14051712 -0.102235764 -0.10046294 0.07545782 0.16562921 0.046797 0.13158466 0.10556886
0.12611923 0.20915578 0.12087152 -0.05744233 0.13816583 -0.22437151 -0.023753943 0.022017036
-0.051947784 0.2582716 0.013893203 -0.081769794 0.1815499 -0.0977651 0.06579886 -0.06885146
0.20582989 0.09227177 0.06319775 -0.11146937 0.11298838 0.19019705 0.20887023 0.15251675
0.008321167 -0.035776503 0.29610437 0.17455582 -0.010086913 -0.03813552 0.14941902 0.052996825
0.042139333 -0.018595273 0.10167345 -0.08181909 0.13645032 -0.13548873 0.09807109 -0.10161008
0.14461619 -0.017579732 -0.16366926 0.10409367 0.120540515 -0.1774812 0.09054118 -0.054162923
-0.052409343 0.048108287 0.12021667 0.21102548 0.18196689 -0.004883847 -0.100328445 0.2739841
0.12198118 -0.035972238 0.22889154 0.0711662 0.23147042 -0.104587235 0.08361995 0.1300808
-0.02040836 0.14335425 0.040252596 0.1833851 -0.011498695 0.1784082 0.23154974 0.007696603
-0.120118275 -0.12181565 -0.014299263 0.14572628 0.06532254 0.08366424 -0.05631902 0.14731963
0.10194661 0.111547686 -0.1584944 0.071612015 -0.059397496 -0.10091373 0.03374043 0.086647116
0.14185096 -0.2217076 -0.07071671 0.14714655 0.15495305 -0.17396533 0.03639254 -0.07044123
-0.20195064 0.18342753 -0.12249047 -0.14652884 0.15951253 -0.017984187 0.12935981 0.04869447
0.023862181 -0.08542285 0.022861836 0.017632594 0.10968339 0.093913585 -0.17216752 0.07973826
-0.094620235 0.014299162 0.1675922 0.1252506 -0.25049892 -0.10702543 0.17392275 0.20895272

layers.2.weight f4 [200]
00000000: fd73 883f db67 823f fb12 843f b447 763f
00000010: c52a 853f d639 823f 8cd2 873f d3be 7b3f
00000020: d10d 793f 6d4f 833f a877 823f 357b 7c3f
00000030: 074c 793f b462 953f dc73 7e3f ab4c 893f
00000040: 0366 843f 0a9b 793f 2ec4 8d3f 9925 843f
00000050: d229 803f 2035 743f 5ca6 753f dcb1 823f
00000060: 6ee6 803f bf16 813f c8ee 833f 1bf9 783f
00000070: 0621 783f f703 6f3f b082 703f c011 8e3f
00000080: 70e1 723f 1c81 7c3f 0dfd 703f 4b7a 833f
00000090: ff27 783f f5d9 763f d1a6 773f 705b 7c3f
000000a0: 822e 823f c435 7a3f 3df3 773f ca12 7c3f
000000b0: c714 883f 5896 7a3f d115 753f e34c 793f
000000c0: a227 783f 5e31 733f 00a1 713f a7a2 783f
000000d0: ff48 813f c863 833f 41f1 8d3f 0624 7d3f
000000e0: d17f 843f 90c9 6d3f 6832 823f b513 7a3f
000000f0: 0ff3 723f 38a4 743f b6d0 773f 384a 8e3f
00000100: ebd1 743f 6087 6d3f c4e5 7b3f 312a 783f
00000110: 83b8 823f 3c65 803f 4668 7a3f 5317 863f
00000120: c591 753f 01aa 7f3f f177 773f 181e 813f
00000130: 7867 723f ba43 7c3f 15ff 793f d52e 783f
00000140: 199a 793f 7503 743f 227f 7e3f a528 7a3f
00000150: 2787 7d3f 497e 813f 286f 773f 97f8 803f
00000160: 95df 7c3f ec4d 803f 87c5 743f 1ebd 7f3f
00000170: 030b 793f a406 783f 8fad 733f 2f18 7e3f
00000180: 21ff 813f e2a6 853f e78c 843f fc6d 783f
00000190: b47a 863f 7980 7d3f 82ec 713f 1672 813f
000001a0: 87e2 743f d252 7c3f bd24 813f 67ca 7a3f
000001b0: e6d4 6f3f c6b8 743f 2584 763f 782e 823f
000001c0: 1ac5 7c3f 9300 713f 6d4b 723f 0611 773f
000001d0: 2e60 743f d749 743f e520 813f b5dc 7a3f
000001e0: d32d 813f 2cb8 713f c7f5 713f 1ab0 753f
000001f0: 6921 763f a9d1 763f 95e1 783f aaff 7b3f
00000200: cfe0 723f 9e08 773f e5d7 743f be98 823f
00000210: 6019 7e3f 6ddb 733f b3da 753f d0d0 7d3f
00000220: bdf2 793f b3c0 743f 5be3 833f 2154 803f
00000230: 1d5c 9c3f 6746 793f fec2 793f 8625 7d3f
00000240: 8484 713f 22f9 813f 6c6f 963f 9985 863f
00000250: 3c20 803f c876 853f 2147 8a3f dc09 983f
00000260: bd90 7c3f d4bf 7b3f 5822 753f 249a 803f
00000270: f5d7 793f 205b 823f 3200 713f 0cb4 763f
00000280: c67e 723f 0331 783f 1774 833f 35de 783f
00000290: 63a8 843f 5276 753f b11d 7d3f d495 783f
000002a0: a39c 753f 078e 753f 41a9 763f 9a3a 783f
000002b0: 07aa 813f ad06 743f 9dd1 923f 3445 793f
000002c0: 4868 833f eaa4 763f b2b6 753f 4650 823f
000002d0: 0431 783f f9fb 763f 1c76 703f c991 773f
000002e0: 16f3 7d3f 4282 7d3f 13c6 703f 5c54 7c3f
000002f0: 3ba4 773f 21f3 7e3f c610 823f 4c40 703f
00000300: 6122 763f 17fa 763f 40a3 803f c457 7f3f
00000310: 462f 763f 14d3 753f 3ec6 8c3f 477e 7a3f
1.0660397 1.0187944 1.0318292 0.9620316 1.0403677 1.01739 1.0611129 0.9833805
0.9728671 1.0258614 1.0192766 0.986255 0.97381634 1.1670747 0.9939554 1.0726522
1.0343632 0.97502196 1.1075494 1.0323974 1.0012763 0.9539356 0.9595697 1.0210528
1.0070322 1.0085067 1.0307245 0.97255105 0.9692539 0.93365425 0.93949413 1.1099167
0.9487524 0.98634505 0.94136125 1.0271696 0.9693603 0.96426326 0.96738917 0.9857702
1.0170443 0.9773829 0.9685553 0.9846617 1.0631341 0.97885656 0.95736414 0.97382945
0.96935475 0.94997203 0.9438629 0.9712319 1.0100402 1.0264826 1.108925 0.9888309
1.0351506 0.92885685 1.0171633 0.9768632 0.9490213 0.9556308 0.9680284 1.11164
0.9563281 0.9278469 0.9839747 0.9693938 1.0212559 1.0030894 0.9781536 1.0475868
0.9592555 0.9986878 0.9666739 1.0087309 0.9468913 0.9854084 0.9765485 0.9694646
0.9750076 0.95317775 0.9941274 0.9771827 0.9903435 1.0116664 0.96653986 1.0075864
0.9877866 1.002378 0.956139 0.99897945 0.9728243 0.9688513 0.95186704 0.9925565
1.0155984 1.0441554 1.03555 0.9704282 1.0506196 0.9902416 0.9450151 1.0112941
0.95658153 0.98563874 1.0089337 0.9796509 0.9368423 0.9559444 0.96295387 1.0170431
0.98738253 0.941415 0.9464634 0.9651035 0.9545926 0.9542517 1.0088164 0.9799302
1.009211 0.9442165 0.9451565 0.95971835 0.9614473 0.96413666 0.9721921 0.9843699
0.9487428 0.96497524 0.9564193 1.0202863 0.9925747 0.9525669 0.96036834 0.9914675
0.97636014 0.95606536 1.0303758 1.0025674 1.2215611 0.9737305 0.9756316 0.9888538
0.9434283 1.0154154 1.1752753 1.0509521 1.0009837 1.0426874 1.0802957 1.1878009
0.98658353 0.9833958 0.9575553 1.004704 0.9759515 1.0184059 0.94140923 0.9636848
0.9472469 0.96949786 1.0269803 0.9721406 1.0363888 0.9588367 0.9887343 0.9710362
0.95942134 0.9591984 0.9635201 0.9696442 1.0130013 0.95322686 1.1470219 0.9737122
1.0266199 0.9634539 0.95981896 1.0180748 0.9694979 0.9647823 0.9393022 0.96706825
0.99199045 0.9902688 0.9405224 0.9856622 0.9673497 0.99589735 1.0161369 0.9384811
0.9614621 0.96475357 1.004982 0.99743295 0.96165884 0.96025205 1.0997999 0.97848934

layers.2.bias f4 [200]
00000000: 3b4c d93d 7de9 db3d b4d5 9c3d b10e 87bd
00000010: 1ee0 4a3c a79c 4dbd 8f2d 0a3e 78f0 babd
00000020: 13dd db3d 4834 b83c d89e a43d 3c15 a93d
00000030: 7512 a23c c1d1 973d eab3 d7bd f495 a83d
00000040: b1c6 6b3d 562f 3ebd 9bc1 8e3d 9feb fa3c
00000050: cbb4 d9bc 4645 a3ba c366 093d b161 4fbc
00000060: f5b2 1e3d 7da3 503c a3fc 133e 9aa1 0cbd
00000070: 6e02 80bd c22d 29bc b1bf f9bb 7cf1 4d3e
00000080: 51cb 5c3d 7280 ae3d 4a48 16bd 56b3 933d
00000090: b387 f6bd 54d3 433d 0af7 5ebc e8d2 a6bd
000000a0: 274a 3b3d 17c8 b9bc a9d6 86bd 29e6 ddbd
000000b0: 8d2f 653d 5b8b 0e3d 8e60 16be f61c 4f3d
000000c0: f132 753d 28ed d1ba ab9a 58bd 9574 98bd
000000d0: 4d0f 473c ab0a 3d3e 1c6a 883d e60a 33bd
000000e0: 9294 c8bc 3cbd ddbd 5841 063d fd33 25bd
000000f0: 3aa9 b2bd f9aa 4c3c cd05 bd39 747f 243e
00000100: 63b4 aebd f449 3fbd fc3b 5e3d 3669 18bd
00000110: d31a 4b3d ce33 9cbd c424 b83c 2ba8 f8bc
00000120: 3b41 783d cfe7 50bd 39b9 5a3c 7b17 133d
00000130: e0d8 663d b519 6c3d 9f00 afbc 9959 17bd
00000140: 3b1c 9b3d 274e c93d d432 70bc ff69 a43c
00000150: 2752 813a 13b4 00bc c93d 6d3b 8853 d7bd
00000160: 48c9 8f3d 875c 0fbd 2890 593d 3109 ab3d
00000170: d142 dabd 9233 c4bd c240 7fbd a06b 153d
00000180: ce7c 513d 22ea f4bc 636f 1d3c d227 96bc
00000190: dcca fc3d a6a2 b63d e237 8c3d c934 d73c
000001a0: 9a88 f3bc f476 8fbd 5bad d9bd 79f7 84bd
000001b0: 8bd7 f3bd ead1 aabc ef52 83bc a370 a6bd
000001c0: 413a 4d3c 4bc8 b9bd 8fc9 39bd e16b ca3d
000001d0: 02b1 203c 8557 17be 1d11 263d 88b8 a6bd
000001e0: 192e 253d c762 16bd d07a c83d 20d4 56ba
000001f0: 646e ddbc 67c3 b7bd 69dd 0dbd ecd3 4abd
00000200: 109c 043d 5fc4 a0bd f9b0 9b3d e103 5b3d
00000210: 541e 6a3c 939b 84bd e59a 26bd fe56 24bd
00000220: 7c37 103c 3c86 debc 71f9 1d3e 04c6 013e
00000230: f76b 143e 7501 25bd 8fbb 633c a376 b73d
00000240: 9cbe 623c 25ac 003a 7e48 893d 0f80 ac3d
00000250: e80a 083d 0bfe 9e3d 73d3 f33d 2450 143d
00000260: 5f48 c4bc b80a 8b3c 8cbf 16be 6c45 9ebd
00000270: 62f4 aa3d 8d56 6b3d 60a9 bfbd 38a5 053d
00000280: abe3 bdbd 8bb7 9c3c 0db4 dabc b96e abbc
00000290: 5909 123e e7d1 853d 7ed3 c23a e2c5 783b
000002a0: f4eb bbbd 5e9b 0abd 0a13 643d 1d7e 53bd
000002b0: 295a c23d b3ea 7fbd 47f4 bc3d 0927 433d
000002c0: 8bcf 68bc ecf3 acbd ff40 c3bd 3c6b a0bc
000002d0: ccf8 1139 4ba6 61bc 71ed 113d ae0b 68bd
000002e0: 7eee 113d a609 61bd e74f c93c 3a55 2fbd
000002f0: d491 073e 4409 d8bc c028 65bc fd8b d63c
00000300: 6f82 893d 535b b1bd 1b7a b63c 336d 1a3d
00000310: 2d89 eabb 2063 08bc eed5 573e a617 513d
0.10610243 0.10737894 0.07657948 -0.06594599 0.012382535 -0.050198223 0.13493942 -0.09127897
0.10735526 0.022485867 0.080381095 0.08256003 0.019784192 0.07413054 -0.10532363 0.08231726
0.057562534 -0.04643186 0.06970521 0.030629931 -0.026575467 -0.0012456558 0.033545267 -0.012657569
0.038744885 0.012734291 0.14451842 -0.034333803 -0.062504634 -0.010325851 -0.0076217283 0.2011165
0.053904835 0.08520593 -0.036690034 0.0721194 -0.12037601 0.04780896 -0.013608703 -0.08145696
0.045725014 -0.022678418 -0.06583912 -0.10834915 0.05595355 0.03480087 -0.1468527 0.05056473
0.059863035 -0.0016016113 -0.052881878 -0.07444111 0.012149644 0.18461101 0.06660864 -0.043711565
-0.024484906 -0.10827109 0.03277716 -0.040332783 -0.08723684 0.012491935 0.0003605321 0.16064245
-0.085305 -0.046701387 0.054256424 -0.037209712 0.04958613 -0.076270685 0.022478469 -0.030353626
0.060609084 -0.05100232 0.013349825 0.035911065 0.056359172 0.057641704 -0.0213626 -0.03695068
0.07573744 0.098293595 -0.014660556 0.020070074 0.0009866402 -0.007855433 0.0036200157 -0.10513979
0.07020813 -0.03500035 0.053115994 0.083513625 -0.106572755 -0.09580149 -0.062317617 0.036479592
0.051144414 -0.0298968 0.009609076 -0.018329535 0.1234338 0.089177415 0.06846596 0.026270287
-0.029728223 -0.070051104 -0.10628768 -0.06492514 -0.11906346 -0.020852048 -0.016030757 -0.081269525
0.012526096 -0.09071406 -0.045358237 0.098838575 0.009807827 -0.1477948 0.040543664 -0.08140665
0.040327165 -0.036715295 0.097890496 -0.0008195061 -0.027030177 -0.08972817 -0.03463498 -0.04951851
0.032375395 -0.07849955 0.07602114 0.053470496 0.014289457 -0.06474986 -0.040675063 -0.040122025
0.008802291 -0.027163617 0.15427186 0.12673193 0.1449431 -0.040284593 0.013899698 0.08958175
0.01383939 0.0004908464 0.0670328 0.08422863 0.033213526 0.077632986 0.11905565 0.03620924
-0.02396029 0.016972885 -0.14721507 -0.07728085 0.083473936 0.057455588 -0.093584776 0.032628268
-0.0927194 0.019130489 -0.026697183 -0.02092682 0.14261378 0.06534176 0.0014864055 0.0037959744
-0.09175864 -0.033839576 0.05568222 -0.051633943 0.09489853 -0.062479686 0.0922628 0.04764465
-0.014209638 -0.08444962 -0.095338814 -0.019582383 0.00013920962 -0.0137725575 0.035626832 -0.056651764
0.035627834 -0.054940842 0.024574233 -0.042805888 0.13239223 -0.026371606 -0.013986766 0.026189798
0.06714331 -0.08659997 0.022275021 0.037701797 -0.007157466 -0.0083244145 0.21077701 0.051047944

layers.2.running_mean f4 [200]
00000000: 6237 8d3e c57f 183e 2fe8 f53d 80e8 0f3e
00000010: 31a5 1b3e ab55 183e 0590 953e a351 863e
00000020: ee46 883e 9c65 143e 09f1 813e afab 993e
00000030: 8f3b 2e3f 15d2 de3d 92c3 043e 5f6b 263e
00000040: ca13 f93d 1d4b bb3e a2ba e63d 30d0 073e
00000050: 1562 6d3e 548b 603e b85a 573e c611 ad3d
00000060: 0f50 5d3e 1ccb 923e e6ba 9f3e 1214 c63d
00000070: 711c b43e debd 173f a70d 893e d8b2 a33e
00000080: d243 8a3e f74f a73e e346 c33e 4a5e 0a3e
00000090: 0067 963e 41c5 3a3e dc23 353e dad6 6f3e
000000a0: 95bb 133e 08dd 313e 4455 d83d 0ef7 a33e
000000b0: 40b7 3e3e 432f aa3e 52b3 8f3e 7cb4 443e
000000c0: ae11 8e3e 80dc e83e 8680 6e3e 3c0c f03d
000000d0: a2cc 693e 79ad a03e 050b ef3d 6fd3 133e
000000e0: 3c17 973d a1ee f23e eb39 913e 714c 543e
000000f0: d247 c03e 800a 973e b8e0 5d3e afa1 ae3e
00000100: 6fdc a63e 31d4 0e3e 439d 403e f256 263e
00000110: 27d8 c13e deb2 e93d 9784 5f3e ae50 563e
00000120: 7f32 a73e 1dcb be3d 5dd6 dd3d b987 643e
00000130: c64d 6a3e 99e2 5b3e bf1a fd3e 324d 843e
00000140: fbf7 9f3e c143 e23e 6801 b03e e39c 193e
00000150: 2bb7 903e ef3a c43d 2ed5 293e 89dc 893e
00000160: f02a 213e 8eae a53e 0959 843e 9fb2 193e
00000170: 0e3d ea3e 2f92 323e af6a 733e 547a 513e
00000180: c638 ae3e 9f41 233e f5e9 713e 6f55 d03d
00000190: 1024 5f3e 2667 e33e dbcd 803e 493d 643e
000001a0: 8e99 363e efa7 483e 8225 da3e 5ac4 b03e
000001b0: c62e 853e 6e43 4c3e 68f9 753e e708 573e
000001c0: d02f 583e 261b ae3e 75a5 b63e 1ec1 873e
000001d0: fdb1 933e 5a39 683e 0e79 203e 7af1 6b3e
000001e0: 5e23 1c3e 48d6 7f3e 28d2 fb3d d175 653e
000001f0: 346c 843e 6a8c d83d 9ceb 843e af71 1f3e
00000200: 7e8f 573e 99aa a13e 02b9 f43e 6d57 8a3e
00000210: 6b12 dc3e 293b 3c3e ae37 533e 07dc 943e
00000220: 9baa eb3e 6cfc 893e 8324 b13e 4cbd 663e
00000230: b225 ae3e cd60 0d3e efd3 733e d09f d53e
00000240: 3db6 153e 593c 463e 1d05 d83d 37d4 4b3e
00000250: 579b 383e 0225 533e 1da2 b43e 72cf b93d
00000260: 4032 003e 6743 9f3e 7f49 4e3e 2e9d 8e3e
00000270: ad96 a63e e4dc ad3e 4085 6d3e 9b51 d63e
00000280: b883 893e 9cda 8b3e 2aad dc3d 6ace 7a3e
00000290: 1487 223e fc33 2f3e 66d7 143e f668 7c3e
000002a0: be57 803e a63f 8f3d 57e2 003e 39b0 c23e
000002b0: e152 6c3e 86c3 063e bc2a d83d 4a8b c03e
000002c0: ca81 a83d d866 703e 055f 333e bee7 1b3e
000002d0: b3e9 683e d2c7 563e 21e0 8e3e 650c ac3e
000002e0: ced1 923e 44e2 223e 2a4b 5a3e 4bcc 963e
000002f0: f712 993e d8dd 953e e620 dc3d 5cbf 0b3e
00000300: f44f fd3d cee1 703e 8e53 853e fd28 823e
00000310: 74b9 2f3e ee29 4a3e d832 8f3e 7e9f c23e
0.27581316 0.1489249 0.12007176 0.14053535 0.15199734 0.1487643 0.2921144 0.2623416
0.26616615 0.14491886 0.25379208 0.30013797 0.6805963 0.10879914 0.12965229 0.16251896
0.121619776 0.36580744 0.11266066 0.13263011 0.23181947 0.2192815 0.210307 0.08450656
0.21612571 0.28670585 0.3119728 0.09671797 0.3517795 0.5927409 0.26768228 0.31972384
0.27004868 0.32678196 0.3814002 0.13512531 0.29375458 0.18239309 0.1768946 0.23421803
0.14427026 0.17369473 0.10563138 0.32024425 0.18624592 0.33239183 0.28066498 0.19209474
0.27747864 0.45480728 0.23291215 0.117210835 0.22831967 0.3138235 0.11672024 0.14436124
0.073774785 0.47447684 0.283645 0.20732285 0.37554795 0.29500198 0.21667755 0.3410773
0.32590052 0.13948132 0.1880999 0.16244105 0.37860224 0.11411069 0.21827923 0.20929214
0.32655713 0.093160845 0.10831902 0.22317399 0.2288123 0.21473159 0.49434468 0.25840145
0.31243882 0.44192317 0.34376073 0.15001254 0.28264746 0.09581553 0.16585228 0.26926067
0.15739036 0.32359737 0.25849178 0.15009545 0.45749706 0.17438577 0.23771165 0.2045682
0.3402769 0.15943001 0.23624404 0.10172545 0.217911 0.44414634 0.25157055 0.22289003
0.17832014 0.19595312 0.4260674 0.34524804 0.26012248 0.19947597 0.24020922 0.2099949
0.21111989 0.34005088 0.3567311 0.26514524 0.28846732 0.22678128 0.15671179 0.23041335
0.15247867 0.24984086 0.122959435 0.22408225 0.25863802 0.10573657 0.25961006 0.1557071
0.21050832 0.31575468 0.477974 0.27019826 0.42982802 0.18381943 0.20626709 0.29074118
0.460286 0.26950395 0.3459817 0.22533149 0.34013134 0.13806458 0.23811315 0.4172349
0.146203 0.19358958 0.1054785 0.19905172 0.18028007 0.20619586 0.35279933 0.0907277
0.12519169 0.3110611 0.20145224 0.27854294 0.32536831 0.3395759 0.23195362 0.41859135
0.26858306 0.27315223 0.10775216 0.24492803 0.1587184 0.17109674 0.14535293 0.24649414
0.25066942 0.06994562 0.12586342 0.38025072 0.23078491 0.13160524 0.10555026 0.3760627
0.0822788 0.23476732 0.17516716 0.15225121 0.22745399 0.20974663 0.27905372 0.33603206
0.28675693 0.15906626 0.21317735 0.29452738 0.29897282 0.29270816 0.107484624 0.13647217
0.123687655 0.23523638 0.2604031 0.25421897 0.17160589 0.19742557 0.27968478 0.38012308

layers.2.running_var f4 [200]
00000000: c137 003d 8de7 d83d 2340 743d 5195 883d
00000010: 333a 9b3d 7285 a73d 328d ed3c 2558 f43d
00000020: 61c7 153e f4b5 ca3d ff66 343e b275 213e
00000030: 484f 9d3e 49ff c33d 961f 243d 5f36 933c
00000040: f951 983c 0c5a 693e ab34 fd3d 8a7f 3d3d
00000050: d82a 443d 9a79 e23d d472 ef3d ab2c 383d
00000060: 8806 003e 7774 913d 5529 053d a4eb 543d
00000070: 3fbf 813e e238 a53e 2249 123e 301e 033d
00000080: 5b2f 323e ddf5 213e 54b6 f03d 7def 953d
00000090: 9a59 b13d f131 c73d f39f c83d 94e7 d13d
000000a0: b40c ae3d 6409 e73c c0cd 543d 7e24 453e
000000b0: 5990 eb3d 0c02 453e c39b 283e 17aa a23d
000000c0: 3a03 023e 7e3a 083e 81e7 053e cf7e 603d
000000d0: bc87 1a3e f71e 0e3d 1fb4 e13d 1e86 683d
000000e0: debb 8c3c ed8a 943e 11d4 063e e0cf b33d
000000f0: 9ccb 1f3e 7cd1 023e 0a46 1e3e 0ddd 153d
00000100: 4d9f 1f3e 6616 803d c45b d33d 13dc fa3d
00000110: 8203 683e 9624 d83d e151 e63d 30da 533e
00000120: 4835 343e 4c3a 8c3c 61e3 653d 7ba6 2a3d
00000130: 28a2 f33d 1569 003e 10b6 623e e9a7 0b3e
00000140: eac5 2a3e b99a 873e fc1e 273e 836f 063e
00000150: 141b 9b3d c4d2 423d a189 5a3d c444 5d3d
00000160: afad 983d 8ea2 9e3d dd14 f23d c8bf 023e
00000170: b829 963e cc86 853d 577e 803d 9008 ad3d
00000180: 331e 7b3d 2d52 ed3d 409a 203d 4016 493d
00000190: 0acf 263d b888 813e 40cb 003e 7ffe 0a3e
000001a0: 9ef6 f13d ac8d 4c3d 50a7 d03d 717c 083e
000001b0: 7fac f83d 1b51 0e3e 76ee 0b3e 59d2 1e3e
000001c0: f388 463d 14c7 663e 6f2b 2f3e 09e7 153e
000001d0: 0fb4 123e 74f4 523e fe9c 913d d278 243e
000001e0: f720 9d3d 419a 0b3e ccad 993d e1be 8e3d
000001f0: 0681 d93d 0c11 8b3d 4d97 0e3e 0cdc 163d
00000200: 613a e93d d985 693e e922 b43e 5d0a 263e
00000210: 1c99 313e 883d e83d 7ed2 ce3d 420e a33d
00000220: 0ed0 8c3e 5a92 aa3d 17f1 1f3d be24 0f3e
00000230: e8f0 013d a91c 613d 9684 3b3e 4945 4f3e
00000240: 23ed a73d 7ed5 df3d dc85 d83d f568 213e
00000250: e23c 0a3e 2803 3f3e 3348 1f3d 7d73 b43d
00000260: af30 c13d d1f3 443e 8884 bf3d 75d5 fa3d
00000270: 7d65 4a3e 8b91 633d c573 f43d 01c7 603e
00000280: e257 3f3e dd1b cc3d 624a a63d 4e6b fb3d
00000290: 892a 9c3c d936 d03d 4252 ab3d 24fd 203e
000002a0: ba3f aa3d 1dfd 163d 52c6 543d 9840 563e
000002b0: 4cc8 0e3e 33da 8a3d 7b09 e93d 6e46 313e
000002c0: 01bc 3c3d 8496 ab3d e844 bd3d b901 dc3d
000002d0: 1e63 c73d 84ab 933d 8ff4 423e f6cb f73d
000002e0: 6d33 0b3e 3233 543d ce36 d83d f651 b53d
000002f0: 738a 333e ee52 cb3d 04e7 a83d 1a0e 1a3d
00000300: 0e68 853d 6d43 dd3d fe05 423e f163 493d
00000310: 6e3a 9b3d 1552 b43d 6b3b d03c 32e3 763e
0.03130317 0.1059104 0.059631478 0.06669105 0.0757946 0.081797495 0.028997991 0.11930875
0.14626838 0.09897986 0.17617415 0.15767553 0.3072455 0.09570176 0.040069185 0.017970262
0.018593775 0.22788256 0.12363561 0.04626421 0.04789242 0.1105835 0.116918236 0.044964474
0.12502491 0.07102292 0.03251012 0.051982537 0.25341222 0.3226996 0.1428571 0.03201121
0.17400877 0.15816446 0.11753526 0.073210694 0.08659668 0.097263224 0.09796133 0.10249248
0.08498517 0.02820272 0.05195403 0.19252202 0.115021415 0.19239062 0.16465668 0.07942598
0.12696543 0.13303563 0.13076593 0.054808434 0.15090841 0.0346975 0.110206835 0.05676853
0.017179426 0.29012242 0.13166834 0.087798834 0.15605015 0.12775224 0.15456405 0.036587764
0.15588112 0.06254272 0.10320237 0.12249007 0.22657588 0.10553853 0.11246086 0.206887
0.1759845 0.017117642 0.05612505 0.041662674 0.11896163 0.12540086 0.22139764 0.13638271
0.1667706 0.26485232 0.16320413 0.13128476 0.07573524 0.047564283 0.05335391 0.054020658
0.074550025 0.077458486 0.118203856 0.12768471 0.29328704 0.06519851 0.062740974 0.08448899
0.061308097 0.115879394 0.039209604 0.049093485 0.04072479 0.2529962 0.12577534 0.13573645
0.118146166 0.049939796 0.10188162 0.1332872 0.12142276 0.13898127 0.13665184 0.15509929
0.04847045 0.2253688 0.17106412 0.14638914 0.143265 0.20601064 0.07110022 0.16061714
0.07672303 0.13633062 0.07503852 0.06970001 0.106203124 0.06790361 0.13924904 0.036830947
0.11388088 0.22804965 0.35182884 0.16214891 0.17343563 0.11339861 0.10098742 0.07961704
0.27502483 0.083286956 0.03904828 0.1397886 0.031723887 0.054958973 0.18312296 0.20241274
0.08199527 0.10929392 0.10572407 0.15762694 0.13499787 0.18653548 0.038887214 0.0881109
0.09433114 0.19233634 0.0935145 0.12247745 0.19765277 0.055558722 0.11936144 0.21950914
0.18685868 0.09966252 0.08119656 0.12276326 0.019063251 0.10166711 0.08365299 0.15721565
0.08312936 0.03686248 0.051946945 0.20923078 0.13943595 0.067798994 0.113787614 0.17312023
0.046077732 0.08378318 0.092416584 0.10742516 0.09735702 0.072104484 0.19038604 0.12099449
0.13593836 0.051806636 0.10557328 0.088535234 0.17533283 0.09927927 0.08247188 0.037611105
0.065139875 0.10803876 0.18947598 0.049167577 0.07579504 0.088047184 0.025418958 0.24110106

layers.4.weight f4 [100, 200]
00000000: c591 083d 9124 fb3c 3e55 7dbd f40d a33d
00000010: f3b2 283d 7303 06b9 0fe5 71bc 4658 1c3d
00000020: 62c1 173d aeb5 87bd d229 c1bc d126 a1bb
00000030: 86d2 83bd a70b 4f3c 87c3 b8bc 19e2 6a3c
00000040: d841 55bd 079f 13bc 5bb1 b9bd 691c 933c
00000050: 3bec 7b3d eb01 823d 1dd3 123b e320 51bd
00000060: 8456 9a3b f8df e7bc bddb 3b3d 097e f53b
00000070: bf87 ac3d c03e 723d 2fd1 43bd 6c2f b73b
00000080: de90 de3c 978d 0ebd 3ea9 cc3c 7963 d3bc
00000090: 362a 2fbd af95 e33c c5d4 a7bd 15a6 983c
000000a0: 7a32 ea3c a9f2 963d 2525 013c cf76 4fbd
000000b0: 04d5 36bd a196 9d3c 1ffc 0dbd a207 b83a
000000c0: 02ab 3d3d b0ab 0dbd e984 c1bc cc73 df3c
000000d0: 0f37 16bc 08bc b33d 3048 e23b 1b12 a9bc
000000e0: 6d04 70bd 9dbb 713d 9692 833c 0e97 803c
000000f0: 4115 46bd e7e1 893d f792 413d 7299 b53d
00000100: 022d 923d 5b2f 223d 7610 553b 82e0 da3c
00000110: a79c 72bd 6d8c e9bc 6226 44bc 0704 9dbd
00000120: 11fa a3bc a203 2f3d 3412 da3c 2216 87bc
00000130: 0a8d 57bc b942 b53b e53c 833c 467a ab3c
00000140: 389f 8ebd d683 14bc 4275 67bc 3a28 debc
00000150: a56b 163c 5fab 24bd ccf4 8d3d a6dd 37bd
00000160: 728f cf3c 4b09 06bd bfe6 d7bc 8778 61bd
00000170: 57fa 60bd 18bd deb9 7a84 46bc ab70 173c
00000180: d5f7 3c3c 27ee b7bc e73e 62bd 0097 88bd
00000190: bf41 193d c430 2abd d68c 22bd 002d 45bd
000001a0: 0869 283d 6430 2fbd a1f0 423d 55c8 89ba
000001b0: a2b5 d53c 17bd 27bd a8bc 86bd d205 ea3c
000001c0: 1483 1ebd 5167 5f3d 342c e03c bd3c 2c3d
000001d0: 55a0 443d fb02 54bd 18ef f6bc d50c 12bd
000001e0: 5009 6fbd 3b9b 9f3c dc56 0cbc d43f e83c
000001f0: 2a49 403c 6bcd 023c cd51 1e3d e9c5 453c
00000200: ca37 51bd 6cac 813c e308 da3c 47a6 87bc
00000210: 954d c6bc 4b51 a73c 3e63 86bd 7d25 fabc
00000220: 7ba7 98bd 8506 05bc 76e4 cabc ea89 c13c
00000230: 950a ae3d df47 bc3c 9bb5 8abd f13f 5ebc
00000240: ad39 403d 6046 99bd e518 123d b640 6cbd
00000250: 0f6b 23bc 0b67 7bbd 1fe5 103d e6a7 ca3c
00000260: 52ae ba3b 129c 37bd 3048 ac3d 779a a5bc
00000270: 6ee3 2bbc ba7e 113d 9d32 873d 6fe4 1a3d
00000280: 71a2 233c 5184 60bd c291 1d3d b9c3 533c
00000290: f884 ccbc 3392 ef3a 65bc eabb 1916 97bc
000002a0: 7341 f63b 07eb 6e3d a3d6 e3bc 883f 4e3a
000002b0: cfdf 63bd eaa0 343c b89d 46bc 57da e8bc
000002c0: ab08 c03c 3d2f 2f3d 78ae 0f3d 25d8 553d
000002d0: 4d88 80bd e374 08bd 9617 6abd 4f00 1dbd
000002e0: f3e9 a6bd 6eff 3c3d af83 4f3d 8d97 5bbc
000002f0: 0b63 07bd 6322 883d df32 a5bc c1a4 34bc
00000300: f6ac cfbc bd60 813d 3b0f ad3c 7990 16bd
00000310: cbbf 033d 6106 7cbc 09bc be3b 611f 8a3d
00000320: d690 143d 9650 23bc c4d5 18bb ea6d 8b3d
00000330: fc74 7bbd 9a99 6438 da6b 9b3d a123 a43d
00000340: 48c3 203d f56c 0dbd be24 ee3c b59b 7abd
00000350: e6ab 283d 6eaf 72bd a54e 6d3d cf0c ca3c
00000360: d1b3 7bbc 61c6 323d c554 00bd f0c8 afbd
00000370: 0b66 9f3c 5c4d 353d da75 213d ae7d 36bd
00000380: 9f1e 8cbd 7552 5f3d 05cb e6bb cc74 c33c
00000390: 3066 d5bb 9f8b 603d 81ea c0bc 0152 e13c
000003a0: 7400 343d bbe1 c6bc 92db 21bd d53c bebc
000003b0: 6885 1e3c d36f 063c 1037 bb3a 87fc 7fbd
000003c0: 7e6a 053d 2347 aa3d cbf1 b7bc e727 babc
000003d0: e54f 80bd 7ed3 413d 1612 e73c cdfb 743c
000003e0: c890 8e3c 48f9 453d e3e2 08bd 09f4 ad3c
000003f0: 2d34 97bd 6006 693c ca42 f33b 01e1 b0bd
0.03334214 0.030657085 -0.06184887 0.07961646 0.041186284 -0.00012780521 -0.0147640845 0.03817012
0.03704966 -0.066264495 -0.023579512 -0.0049179574 -0.064366385 0.0126370555 -0.022554172 0.014336132
-0.052064747 -0.009010083 -0.09067031 0.017957883 0.061504584 0.06348022 0.0022403665 -0.051056754
0.0047100205 -0.028305039 0.045863856 0.007491831 0.08424329 0.059141874 -0.047806915 0.00559037
0.027168687 -0.034803 0.024983045 -0.025804268 -0.042764865 0.027781336 -0.081948794 0.018633882
0.028588522 0.073705025 0.007882391 -0.050650414 -0.04463674 0.019236865 -0.03466427 0.0014040361
0.046305664 -0.034587562 -0.023622947 0.027276896 -0.0091684 0.087760985 0.006905578 -0.020638516
-0.05859797 0.059016813 0.016061109 0.015697028 -0.048360113 0.067325406 0.047259297 0.08867158
0.07137491 0.039595943 0.0032511032 0.026718382 -0.059231427 -0.028509343 -0.011972042 -0.07666784
-0.020016702 0.042728074 0.026620008 -0.016490046 -0.013156185 0.0055316356 0.016020248 0.020932328
-0.06963962 -0.009064635 -0.014127078 -0.02711879 0.009180938 -0.040202495 0.06931457 -0.044889115
0.025336955 -0.032723706 -0.026355145 -0.055046584 -0.054926243 -0.00042484025 -0.012116546 0.009243171
0.011533697 -0.022452427 -0.05523577 -0.06669426 0.037416216 -0.041550413 -0.039685093 -0.04813862
0.04111579 -0.04277076 0.047592763 -0.0010511974 0.026087586 -0.040951815 -0.06578952 0.028567228
-0.038699225 0.05454189 0.027364828 0.042050112 0.048004467 -0.051760655 -0.030143306 -0.03565677
-0.05835849 0.0194832 -0.008565631 0.028350748 0.011736194 0.007983546 0.03865223 0.012071111
-0.051078595 0.015829287 0.026615566 -0.01655878 -0.024206916 0.020424506 -0.06561898 -0.030535454
-0.07453819 -0.00811923 -0.024767142 0.023625333 0.08498112 0.02298349 -0.0677292 -0.0135650495
0.046930004 -0.07484126 0.035668273 -0.0576789 -0.009974255 -0.061377566 0.035374757 0.024738263
0.00569705 -0.044826575 0.08412206 -0.020215256 -0.010491235 0.035521246 0.066014506 0.037815508
0.0099874595 -0.054813687 0.038469084 0.012925082 -0.024965748 0.0018277824 -0.0071635717 -0.018443154
0.0075151264 0.05832961 -0.027812308 0.0007867743 -0.055633362 0.011024693 -0.012122564 -0.028424425
0.023441633 0.04276966 0.035078496 0.052208085 -0.06275997 -0.033314597 -0.0571514 -0.038330372
-0.08150091 0.046142034 0.050662693 -0.013402832 -0.03305344 0.06647184 -0.020165859 -0.0110256085
-0.025351029 0.063172795 0.021125427 -0.036758874 0.03216533 -0.01538238 0.0058207554 0.06744266
0.03627094 -0.009967944 -0.0023320774 0.06808074 -0.061390862 5.450249e-05 0.075889304 0.08014608
0.039248735 -0.034527738 0.029070254 -0.06118365 0.04117956 -0.059249334 0.05793633 0.02466431
-0.015362696 0.04364622 -0.031330843 -0.08583248 0.019457838 0.04426323 0.039419033 -0.04455345
-0.06841778 0.054521997 -0.007043245 0.023859404 -0.006512426 0.054820653 -0.02354932 0.027504923
0.043945745 -0.024277559 -0.03951604 -0.023222366 0.009675361 0.008205372 0.0014283378 -0.06249669
0.032572262 0.083143495 -0.022454163 -0.022724105 -0.06265239 0.047320835 0.028206866 0.014952612
0.017403021 0.048333436 -0.0334195 0.02123453 -0.073829986 0.014222711 0.0074237334 -0.08636666

layers.4.bias f4 [100]
00000000: e485 fd3c a952 043e bb38 a43d 4d18 87bc
00000010: c72e 413d afc4 653e 11b1 633d 9e30 ac3d
00000020: 6152 30ba af25 703c 94ff d6bc 0822 903d
00000030: 5415 8cbd cf08 2bbb 6038 77bc 4814 553c
00000040: a331 093e b7ce 373d 3481 14be 92ef 643e
00000050: 78a7 2c3e d495 f73d 00cc e93d 9718 443e
00000060: 3ac3 06bd a0f5 a4bc da88 4b3e dbea ae3d
00000070: b5fa 813d fdd6 ae3d 24cb 333d 5d70 ac3d
00000080: 6d19 bb3d c77e 943d 430e dd3d 9cb9 033c
00000090: 0ec9 883e 5921 0bbd b6c2 6a3e 72a9 f33d
000000a0: 60e9 893e ba56 083e 081a 813e 35f6 113d
000000b0: 39a5 a63d b833 8e3d 14bd a1bd 7ea4 083e
000000c0: 15e7 fd3d 0547 813d 880f f43d 0c0f 0b3e
000000d0: 66ae c0be 7364 c33d d0e3 ec3d 5a26 9e3c
000000e0: 8ee1 1bbe 918c d73b 74e6 753c 71b9 133e
000000f0: ecac e63d 25d7 a33e 5af3 153e 9cab 663d
00000100: d6e8 863e fa1a f23d f2e3 0d3e f53a 2ebe
00000110: 4389 fd3d 5d2c 2d3d 89bd 823b 3fee 1f3e
00000120: a3f0 073e f75b 243e ff2b c73d 6bc1 b03d
00000130: 315b 1d3c d8eb 733d b3ba b13d ad83 213d
00000140: 73b0 633d def3 203e c04f 72b7 7f08 e33c
00000150: 9194 5cbe 152f e73d a571 e83d a8f8 8b3d
00000160: 14fc a63d 3a4e 113d 7cfa ca3d e03a ed3d
00000170: 0281 313e 84ef 58bd 4274 ec3c 837c 223e
00000180: 685b 3c3d 68af b73d df0b 273d 668b 1ebd
0.030947633 0.12922157 0.08018633 -0.01649108 0.04716375 0.2243831 0.055588786 0.084077105
-0.00067261426 0.014657422 -0.026244916 0.07037741 -0.068400055 -0.002609778 -0.015089124 0.013005324
0.13397841 0.044874873 -0.14502412 0.22357014 0.1686076 0.12089124 0.11415863 0.19150005
-0.032901026 -0.020136654 0.19876423 0.08540889 0.06346647 0.085370995 0.043894902 0.08419869
0.09135709 0.07250743 0.10793736 0.008039858 0.26715893 -0.03396735 0.22925839 0.118975535
0.26935863 0.13314334 0.25215173 0.035635192 0.081369825 0.06943458 -0.07897392 0.13343999
0.12397591 0.06312374 0.11917025 0.13579959 -0.37633055 0.095406435 0.11566889 0.019305397
-0.15222761 0.006578036 0.015008558 0.14426209 0.11263451 0.3200008 0.14643613 0.056316003
0.26349515 0.118215516 0.13856485 -0.17014678 0.12379696 0.042278636 0.0039898795 0.15618227
0.1327539 0.16050707 0.097251885 0.086306415 0.009604261 0.05955109 0.08678188 0.039432216
0.055588197 0.15718028 -1.4442892e-05 0.027714012 -0.21541049 0.11288277 0.11349801 0.06834537
0.08153549 0.035474993 0.09911057 0.11583495 0.17334369 -0.052962795 0.02886403 0.1586781
0.04598561 0.08969003 0.040782806 -0.03870716

layers.6.weight f4 [100]
00000000: e1bc 793f ff57 763f a02f 783f acd0 763f
00000010: fdfc 7a3f 9ae8 733f 7044 7a3f 950d 773f
00000020: c3d3 7a3f 2fa0 783f 5c08 763f d408 783f
00000030: 3d2c 7a3f 2902 763f e797 753f b42a 803f
00000040: 9586 773f 5264 743f 306e 723f 0e12 7f3f
00000050: f745 713f ff24 773f b297 783f e12f 7d3f
00000060: d0a0 7b3f 1a96 653f a6f6 7b3f 9b76 783f
00000070: 5c7c 753f 9405 763f 775a 733f 4dcb 7d3f
00000080: a5f1 763f 6627 733f 800e 7b3f 6d80 773f
00000090: 8b12 6b3f 3249 763f 9e38 7c3f c48c 773f
000000a0: 8c80 7b3f 4ee3 763f 9495 7b3f b2de 733f
000000b0: 54a2 723f 0c03 793f 2e0f 7c3f 5847 793f
000000c0: ee36 783f a6d2 783f 9ba9 783f 3a33 763f
000000d0: 70b3 883f 7fde 753f 9207 6f3f 482c 783f
000000e0: 8773 803f e2ca 793f 4fda 753f 67f9 783f
000000f0: 0db2 723f 0538 683f 8bbb 7a3f 36a1 763f
00000100: 2cec 643f e620 753f fff2 7e3f 44ee 7e3f
00000110: ca46 773f ae45 763f d043 773f e2e5 733f
00000120: d7d1 7a3f d941 7b3f 2e16 743f 1fe5 773f
00000130: 85ba 7a3f d1d4 723f de62 753f 877f 763f
00000140: d078 7d3f 1d95 793f 88bd 733f e944 773f
00000150: 3fd8 883f e476 763f 14ff 743f 4449 783f
00000160: 17d5 773f aa21 803f 87f0 793f e42c 7b3f
00000170: 4305 773f 831e 763f 374a 733f 7685 773f
00000180: dbab 733f e4df 753f f4a1 773f 644f 793f
0.9755383 0.9622802 0.9694767 0.9641216 0.9804228 0.95276797 0.9776068 0.965051
0.9797937 0.9711942 0.96106505 0.9688847 0.9772375 0.96097046 0.9593491 1.0013032
0.9668973 0.95465577 0.9469938 0.99636924 0.9424738 0.96540827 0.9710647 0.9890118
0.98292255 0.8968216 0.9842323 0.9705598 0.9589288 0.9610226 0.95059913 0.9913834
0.9646247 0.9498199 0.98069 0.9668034 0.9182517 0.9620544 0.9852389 0.96699166
0.9824302 0.9644059 0.98275113 0.9526168 0.94778943 0.97270274 0.9846066 0.97374487
0.96958816 0.97196424 0.971338 0.96171916 1.067976 0.9604263 0.93370926 0.9694257
1.0035256 0.975752 0.9603624 0.9725556 0.94802934 0.9071048 0.9794242 0.9633974
0.8942287 0.95753324 0.9958953 0.99582314 0.9659239 0.9620007 0.9658785 0.9527265
0.9797644 0.9814735 0.95346344 0.96833986 0.97940856 0.9485598 0.95853984 0.9628834
0.9901247 0.97493154 0.95211077 0.96589524 1.0690993 0.9627516 0.9570172 0.96986794
0.96809524 1.0010273 0.9763264 0.9811537 0.96492404 0.9614031 0.9503512 0.9668802
0.95184106 0.96044755 0.96731496 0.97386765
