TaxiFareRegrModel.pt (torch, 113249 bytes, 20 tensors)

embeds.0.weight f4 [24, 12]
0	0x3ed15bfa	0.40890485
1	0xbdecb0bc	-0.11557147
2	0xbf0b87b6	-0.54503953
3	0x3f1233f2	0.5711051
4	0x3f4edf9d	0.80809957
5	0xbf07ff0d	-0.5312355
6	0x3fb3f342	1.4058611
7	0x3dfb09eb	0.12257751
8	0xbf95936f	-1.1685618
9	0x3f9ee828	1.2414598
10	0x3ed96078	0.42456412
11	0xbe8d172a	-0.27556735
12	0x3d8dc312	0.06921972
13	0xbfa9c2ab	-1.3262533
14	0x3dd60e17	0.10451906
15	0x3f32c1cd	0.69826967
16	0xbedcd533	-0.43131408
17	0xbfadc29c	-1.3575015
18	0x3f97b40e	1.1851823
19	0xbf1a57b7	-0.6029009
20	0x3dc16b4c	0.094442934
21	0x3f9fde53	1.2489723
22	0xbf2b201e	-0.6684588
23	0x3f1b2443	0.60602206
24	0x3ea67277	0.32509205
25	0xbf8f40f2	-1.1191695
26	0xbee5ad93	-0.4485899
27	0x3eac36bf	0.33635518
28	0xbe72351a	-0.23653069
29	0xbf2f99e0	-0.6859417
30	0xbfaa75c9	-1.3317195
31	0xbf85240d	-1.0401627
32	0xbf73a85a	-0.9517876
33	0x3ed6c883	0.41949853
34	0xbf6a32e8	-0.91483927
35	0x3f491829	0.7855249
36	0xbf93aa9b	-1.153644
37	0xbe9d1c17	-0.30685493
38	0xbf8ebdc6	-1.1151664
39	0x3fb01d84	1.3759007
40	0xbe8a2164	-0.269786
41	0x3e976a82	0.29573447
42	0x3ee47163	0.44617757
43	0x3f57ced6	0.8429998
44	0x3f0ad257	0.54227203
45	0x3e39da9c	0.18149799
46	0x3e19a9a8	0.15006125
47	0xbe2995a3	-0.16560988
48	0xbf7ad311	-0.9797831
49	0xbf5c0ff2	-0.8596183
50	0x3fb4c5f2	1.4122908
51	0xbfa6e86d	-1.3039681
52	0xbea0aedd	-0.3138341
53	0xbfc183a3	-1.5118297
54	0xbeba4453	-0.36380252
55	0x3f97a02e	1.1845758
56	0x3d10eb77	0.035380807
57	0xbf23bd7c	-0.63961005
58	0x3f41dc89	0.75727135
59	0x3ef1335b	0.47109494
60	0x3e906be2	0.28207308
61	0xbe643faf	-0.22289918
62	0x3f3b85ed	0.7325123
63	0xc02646c8	-2.5980701
64	0xbe7d9626	-0.24764308
65	0xc00fa3ae	-2.2443652
66	0xbfdc8d68	-1.7230654
67	0xbc275411	-0.010212914
68	0xbf86d541	-1.053383
69	0x3f255907	0.6458897
70	0x3e9181e2	0.28419405
71	0x3f49fde1	0.78903013
72	0x3e64ea44	0.2235499
73	0x3f8648fe	1.0491025
74	0x3f175088	0.59107256
75	0xbf1cba1c	-0.6122148
76	0xbf0e61e6	-0.5561813
77	0xbf1d1b08	-0.6136937
78	0x3f09b1ad	0.53786737
79	0xbe2ae14d	-0.16687508
80	0x3fc91a51	1.5711156
81	0xbfa3088d	-1.2736984
82	0xbde1742c	-0.11008486
83	0x3f9885a7	1.1915787
84	0x3fdbe385	1.7178808
85	0xbde271ae	-0.11056839
86	0x3d8ad252	0.06778397
87	0xbf8f5b4a	-1.1199734
88	0xbf2e7ca9	-0.68158966
89	0xbb308200	-0.0026932955
90	0x3f19e037	0.6010775
91	0xbf9c3fe8	-1.2207003
92	0xbf16a7ea	-0.58849967
93	0xbf81b3d9	-1.013301
94	0xbedf473c	-0.43609035
95	0xbf8df4f4	-1.1090379
96	0xbf2608ec	-0.64857364
97	0xbf63b3d6	-0.8894628
98	0x40298632	2.6488156
99	0x3faf84a8	1.3712358
100	0xbbb9445c	-0.005653901
101	0xbf1d755d	-0.6150721
102	0xbeffd5de	-0.49967855
103	0x3e11e48f	0.14247344
104	0x3f160c5a	0.58612597
105	0x3fa15ae1	1.2605859
106	0x3efdd7c1	0.4957867
107	0xbf12a83d	-0.5728796
108	0x3f86b81a	1.0524933
109	0x3dc89c7c	0.09795472
110	0x3f927687	1.1442422
111	0xbd61b07b	-0.055099946
112	0xbfa172bd	-1.261314
113	0x3f144557	0.57918304
114	0xbe8ce4c9	-0.275183
115	0xbf82b0bd	-1.0210186
116	0x3f655228	0.89578485
117	0x3fbbe424	1.4678998
118	0xbfaa3a5d	-1.3299061
119	0x3e2f2078	0.1710223
120	0xbe984c83	-0.29745874
121	0x3fc8a1cb	1.5674375
122	0xbeb16019	-0.3464363
123	0xbe81bcf1	-0.25339463
124	0x3f10a7e6	0.5650619
125	0xbf58e134	-0.8471863
126	0xbf74c2cb	-0.9560973
127	0x3f3ce93c	0.7379339
128	0x3f01b6b6	0.5066942
129	0xbf0a3115	-0.53981143
130	0xbfe40c9c	-1.7816348
131	0xbf0f91ff	-0.5608215
132	0x3ecd02da	0.40041238
133	0x3f642b0b	0.8912818
134	0xbf45f068	-0.77319956
135	0x3fece545	1.8507468
136	0x3f4773e2	0.779112
137	0x3f759450	0.9592943
138	0x3f613d72	0.87984383
139	0xbf79d760	-0.9759426
140	0xbfa660db	-1.2998308
141	0xbfff5e2a	-1.9950612
142	0xbd850df6	-0.064968035
143	0xbf1c425d	-0.6103876
144	0xbfb4b465	-1.4117552
145	0xbe23201a	-0.15930215
146	0x3f6337a5	0.8875678
147	0x3f58c798	0.84679556
148	0xbd98703d	-0.07443283
149	0x3f8ef81e	1.1169469
150	0xbf789edc	-0.971174
151	0x400f96e9	2.2435858
152	0xbe717f40	-0.23583698
153	0x3eb0f46c	0.3456148
154	0x3fa3f5e9	1.2809421
155	0xbfb44740	-1.4084244
156	0x3fe38c43	1.777718
157	0x3eb8f3c0	0.36123466
158	0xbf2f739f	-0.685358
159	0xbf6cf6f2	-0.9256431
160	0xbf63c240	-0.88968277
161	0xbda4def6	-0.08050339
162	0x3e31ae55	0.17351659
163	0x3eeed7e1	0.46649078
164	0xbe0abe30	-0.13549113
165	0xbc506aa8	-0.012720741
166	0xbfd37de5	-1.6522795
167	0xbfcb8920	-1.5901222
168	0x3e4697f3	0.19393902
169	0xbfb748c9	-1.4319087
170	0x3f8aa9e5	1.0833098
171	0x3f727b3d	0.94719297
172	0xbfd96d6e	-1.698652
173	0x381b9b50	3.7099526e-05
174	0x3faed3bd	1.3658367
175	0xbeb89e3f	-0.36058232
176	0xbf8c7f4a	-1.0976346
177	0x3ed2be74	0.4116093
178	0x3f8e01fe	1.1094358
179	0xbf532bd4	-0.8248875
180	0x3bfac394	0.0076527093
181	0xbe600166	-0.21875533
182	0x3c71b75b	0.014753188
183	0x3dc898be	0.09794758
184	0x3f5bfbcb	0.8593108
185	0x3f7edc2b	0.995547
186	0xbdc8c207	-0.09802633
187	0xbff798c9	-1.9343501
188	0x3e721462	0.23640588
189	0xbf4fcc2f	-0.81170934
190	0xbfcfeb50	-1.6243687
191	0xbf4b6b68	-0.79460764
192	0xbfb28ac0	-1.3948593
193	0xbfb2e4ce	-1.3976076
194	0xbeedb972	-0.46430546
195	0xbfb13273	-1.3843521
196	0xbf771939	-0.9652286
197	0x3b9db090	0.0048123077
198	0x3f987661	1.1911126
199	0x3fe1172b	1.7585195
200	0xbd0c05fa	-0.034185387
201	0x3e622998	0.2208618
202	0xbede9df0	-0.43479872
203	0xbebec6d6	-0.37261075
204	0xbefca097	-0.4934127
205	0xc006ced5	-2.106374
206	0xbf73e323	-0.9526846
207	0xbf9da205	-1.231507
208	0x3e75eaf0	0.24015403
209	0x3ed15d2d	0.408914
210	0xbfca9ec1	-1.5829698
211	0xbe2c9bab	-0.16856258
212	0xbf3927f2	-0.72326577
213	0xbee64067	-0.4497101
214	0xbeac6cb6	-0.3367669
215	0x3fa6524c	1.2993865
216	0xbfdd05d5	-1.7267405
217	0xbf43ec17	-0.7653212
218	0xbf07d07c	-0.53052497
219	0xbf80f646	-1.0075157
220	0x3f4ce363	0.80034465
221	0xbeb34984	-0.35017025
222	0x3ede05dc	0.43363845
223	0xbd359be8	-0.044338137
224	0xbf80081b	-1.0002474
225	0x3e0c6322	0.13709691
226	0xbf8e1642	-1.1100543
227	0xbf7429db	-0.95376366
228	0xbfbf0e00	-1.4926147
229	0x3e9385f6	0.28813142
230	0xbf754a5a	-0.95816576
231	0xbe9a9b50	-0.3019662
232	0x3ecc6de9	0.39927605
233	0x3e138099	0.14404525
234	0x3ffd7757	1.9802045
235	0xbe69bcfa	-0.22825995
236	0x3fac07c0	1.3439865
237	0xbee0d491	-0.43912175
238	0xbcc8d15e	-0.024513897
239	0x3fa0c480	1.2559967
240	0xbfebe287	-1.8428506
241	0xbf1b97ad	-0.60778314
242	0xbda56e45	-0.08077673
243	0xbf0f7b98	-0.56047964
244	0xbe98de3b	-0.29857048
245	0xbd829418	-0.06375903
246	0xbf0c01af	-0.5469007
247	0xc023fd1f	-2.5623243
248	0x3ef8d487	0.48599645
249	0x3f19e0b1	0.60108477
250	0xbf5ea925	-0.86976844
251	0x3f778d8e	0.9670037
252	0xbf9e8f19	-1.238742
253	0xbe7829eb	-0.2423474
254	0xbf941216	-1.1568019
255	0xbee47243	-0.44618425

embeds.1.weight f4 [2, 1]
0	0xbe332f72	-0.17498568
1	0x3e898955	0.2686259

embeds.2.weight f4 [7, 4]
0	0x3e6f1e2a	0.2335135
1	0x3e8b974b	0.27263865
2	0x3f5312b6	0.82450426
3	0xbfe27968	-1.76933
4	0x3ef70f38	0.48253798
5	0xbf33b672	-0.70200264
6	0x3f955a96	1.166827
7	0x3ee3f307	0.44521353
8	0x3fc457b2	1.5339262
9	0xbfad370c	-1.3532424
10	0xbfbcec4c	-1.4759612
11	0x3edf90d8	0.43665195
12	0x3f2e5c42	0.68109524
13	0xbe7bc643	-0.2458735
14	0xbfff243d	-1.9932934
15	0xbfd03e5c	-1.626903
16	0xbf0fe505	-0.5620883
17	0xbecc2ba2	-0.3987704
18	0x3fcacf16	1.5844448
19	0x3f072e1f	0.5280475
20	0x3fca02c4	1.5782094
21	0xbf02505e	-0.5090388
22	0xbfa0b48f	-1.2555102
23	0xbecc9e14	-0.39964354
24	0x3f3ca416	0.73687875
25	0xbf4da221	-0.80325514
26	0xbf17d15f	-0.5930385
27	0x3e0c7c4f	0.13719295

bn_cont.weight f4 [6]
0	0x3f8182cb	1.011804
1	0x3f8ac40b	1.0841078
2	0x3f81d15d	1.0142018
3	0x3f913422	1.1344035
4	0x3f59629d	0.84916097
5	0x3f8eab8e	1.1146104

bn_cont.bias f4 [6]
0	0xbb980282	-0.004638971
1	0xbe1f5961	-0.15561439
2	0x3daa63b8	0.08319801
3	0x3b44995e	0.002999864
4	0xbd9c528a	-0.076329306
5	0xbe463e94	-0.19359809

bn_cont.running_mean f4 [6]
0	0x42230170	40.751404
1	0xc293f3e4	-73.97635
2	0x422301e9	40.751865
3	0xc293f2d5	-73.97428
4	0x3fac9577	1.3483113
5	0x405400d2	3.31255

bn_cont.running_var f4 [6]
0	0x3a2df01d	0.0006635206
1	0x3a84dba1	0.0010136255
2	0x3a704f5d	0.00091670995
3	0x3a8a52a5	0.0010553194
4	0x3f13a448	0.5767255
5	0x41313eae	11.077803

layers.0.weight f4 [200, 23]
0	0xbd1e42ed	-0.038638044
1	0xbbcd6ef6	-0.006269331
2	0x3ccd4475	0.025057057
3	0xbbbeeeba	-0.0058267983
4	0xbba4cf1b	-0.0050295717
5	0xbcdd8dab	-0.027045092
6	0xbbcac3e2	-0.006187902
7	0xbd0a31cb	-0.033738893
8	0xbc34d5e1	-0.011037321
9	0xbd20dd05	-0.03927328
10	0xbd0ad870	-0.033897817
11	0x3a9260b7	0.0011167739
12	0x3e295e3c	0.16539854
13	0x3c7ae650	0.0153137
14	0xbd9a4feb	-0.075347744
15	0x3c5066da	0.012719834
16	0xbd046819	-0.032325838
17	0x3d89b98f	0.067248456
18	0xbb8b45b2	-0.0042502517
19	0xbda04818	-0.07826251
20	0x3cf7a0b3	0.030227995
21	0x3bb509f8	0.00552487
22	0xbe9bdd1b	-0.30442128
23	0xbdb93c78	-0.090447366
24	0x3dec0898	0.11525077
25	0xbd56a74d	-0.052405644
26	0x3e23d7cc	0.16000289
27	0x3d50d857	0.050987568
28	0x3d6d1596	0.057881914
29	0xbcf904a3	-0.030397719
30	0x3de8c61c	0.11365911
31	0x3e0ae108	0.13562405
32	0x3be23e1c	0.0069043767
33	0xbe1e1079	-0.15435971
34	0xbe046d10	-0.12932229
35	0xbe592b04	-0.21207815
36	0x3dc0168b	0.093793
37	0xbdc44c38	-0.0958485
38	0x3d144261	0.036196116
39	0x3d655614	0.055990294
40	0xbcdadc13	-0.026716268
41	0x3d8d6d1d	0.06905577
42	0x3a0e7fe6	0.00054359285
43	0x3c4b9f73	0.012428152
44	0x3bf1d992	0.0073806727
45	0x3e7dff96	0.2480453
46	0xbdb93f81	-0.090453155
47	0x3c248e9d	0.010043767
48	0xbab94508	-0.0014134953
49	0xbd4c8dc6	-0.049939893
50	0xbd993d61	-0.0748241
51	0x3ca6ea31	0.020375343
52	0xbd164c77	-0.036694016
53	0x3d7a8859	0.061165188
54	0x3d223eb4	0.03961058
55	0xbd138115	-0.036011774
56	0xbcae12c7	-0.021249188
57	0xbd674881	-0.05646563
58	0xbe29c405	-0.16578682
59	0x3d2fd302	0.042925842
60	0xbdbe1936	-0.09282152
61	0x3d4b36bd	0.04961275
62	0x3d328693	0.04358537
63	0xbc3e1b68	-0.011603214
64	0x3c9702e1	0.01843399
65	0xbc1d15e9	-0.009587743
66	0x3d6c1eb6	0.057646476
67	0xb9732428	-0.00023187755
68	0x3e476c9d	0.19475026
69	0xbe50ebb7	-0.20402418
70	0x3dbf553e	0.093424305
71	0xbcf417fa	-0.02979659
72	0x3e0711cd	0.13190384
73	0xbdbea4b3	-0.09308758
74	0xbe4f673e	-0.20254228
75	0xbe2cba63	-0.16867976
76	0x3d9b1b76	0.07573597
77	0xbb5205c8	-0.0032046903
78	0xbe208851	-0.15677
79	0x3bba97fa	0.0056943865
80	0x3d47d4aa	0.048786797
81	0xbbdfd74a	-0.0068310844
82	0xbdaeecd3	-0.085412644
83	0x3df2aee0	0.11849761
84	0xbdf1ece7	-0.11812764
85	0x3da07b5b	0.07836028
86	0x3df08e64	0.11745909
87	0xbda2f6c4	-0.07957223
88	0xbe0c3be4	-0.13694721
89	0xbd19ffcc	-0.037597463
90	0x3df22f76	0.11825459
91	0xbe46eb80	-0.19425774
92	0xbcd11eae	-0.025527325
93	0xbbb60143	-0.0055543496
94	0x3c3858dd	0.011251655
95	0xbc197d89	-0.009368309
96	0xbda05e73	-0.07830515
97	0xbd1a7949	-0.037713323
98	0xbcfa2247	-0.030533923
99	0x3d60d04d	0.05488615
100	0x3cd27ecc	0.025695227
101	0x3d9846f6	0.0743541
102	0xbd263cff	-0.040585514
103	0x3d0c120c	0.0341969
104	0x3ce8c728	0.028415278
105	0x3d1c1dc1	0.038114313
106	0xbda76e97	-0.0817539
107	0x3d48f426	0.049060963
108	0xbd5f2590	-0.05447918
109	0x3dda5538	0.106607854
110	0x3caa0628	0.020754889
111	0xbdda5438	-0.10660595
112	0x3d0bd8ca	0.034142293
113	0x3d2432d1	0.040087525
114	0x3e67d60a	0.22640243
115	0xbc631f1e	-0.013862399
116	0xbc741d45	-0.0148995565
117	0x3c968850	0.018375546
118	0x3bb9668d	0.005657977
119	0xbac49a88	-0.0014999667
120	0xbba64142	-0.0050736973
121	0x3d4140b7	0.047180858
122	0xbb91e108	-0.0044518746
123	0x3cbed1ed	0.02329346
124	0xbc14241f	-0.009041815
125	0xbd051e3a	-0.03249953
126	0xbd22a171	-0.039704744
127	0xbe44dfeb	-0.19226043
128	0xbc8b60b3	-0.017013883
129	0xbb87ec99	-0.0041480777
130	0xbc351125	-0.011051451
131	0x3d960e51	0.073269494
132	0xbccae1f4	-0.024765946
133	0xbe74394a	-0.23849979
134	0xbe19d95f	-0.15024327
135	0x3e837419	0.25674513
136	0x393ed243	0.0001819814
137	0x3d6cf731	0.057852928
138	0xbc58fa3d	-0.013243255
139	0x3cb452fd	0.022012228
140	0xbcdcb110	-0.026939899
141	0xbc867e5f	-0.01641768
142	0x3d88a1eb	0.066715084
143	0xbca79865	-0.02045841
144	0xbd8de75f	-0.06928896
145	0x3ceb73db	0.028741768
146	0xbd48e18c	-0.049043223
147	0xbbd1e7f1	-0.0064058234
148	0x3d37d26b	0.044878405
149	0xbd94588c	-0.072434515
150	0xbe0be5a9	-0.13661827
151	0x3b9a3e9f	0.004707172
152	0xbdd6d477	-0.10489743
153	0x3b8af42f	0.0042405347
154	0x3df30b6f	0.11867415
155	0x3d0fa84e	0.035072617
156	0xbbbf82bf	-0.0058444436
157	0xbe2e7656	-0.17037329
158	0x3dff11be	0.12454556
159	0xbdc42fbf	-0.09579419
160	0xbe9bf8ea	-0.30463344
161	0x3daffdad	0.08593307
162	0xbc54c92a	-0.012987414
163	0x3e1c1b82	0.15244868
164	0xbd1d0fd7	-0.038345184
165	0x3da8ea0c	0.08247766
166	0xbb05ea05	-0.0020433676
167	0x3c0310eb	0.007999639
168	0xbddf7cb0	-0.10912454
169	0xbd8e9de7	-0.06963711
170	0xbd43b7fd	-0.047782887
171	0x3db0f9d0	0.08641398
172	0x3da1fc91	0.07909501
173	0xbe5fefb7	-0.21868788
174	0xbc773db6	-0.015090397
175	0x3da580fc	0.080812424
176	0xbd8230b9	-0.06356949
177	0xbdb094ca	-0.08622129
178	0x3ec5def2	0.38646656
179	0xbe456c73	-0.19279651
180	0x3d187e0c	0.037229583
181	0xbe2b4f87	-0.16729556
182	0xbcc77bcc	-0.024351023
183	0xbda90eb2	-0.08254756
184	0xbd3009ac	-0.042977974
185	0x3dc88824	0.09791592
186	0xbd6849a3	-0.05671085
187	0xbde64dcf	-0.112453096
188	0x3d8d67b1	0.06904543
189	0xbdd5d5c6	-0.10441165
190	0x3da03cb3	0.078240775
191	0x3dd1790c	0.10228166
192	0x3d8ccee1	0.068753965
193	0xbde00333	-0.1093811
194	0xbd8fb5b7	-0.07017081
195	0xbcdaca6e	-0.026707854
196	0xbce87d42	-0.02838004
197	0xbe2f1002	-0.1709595
198	0xbd33dec1	-0.043913607
199	0x3e4c9a25	0.19980676
200	0x3a1510c4	0.0005686397
201	0xbde57358	-0.11203641
202	0x3c85b842	0.016323213
203	0xbe3074de	-0.17232081
204	0x3ca7011d	0.020386273
205	0x3e4877d6	0.19576964
206	0x3dfc0e22	0.12307383
207	0x3d8c0a3d	0.0683789
208	0x3c0490be	0.00809115
209	0x3db31133	0.08743515
210	0xbcbb0610	-0.02283004
211	0xbcfd9da2	-0.030958954
212	0x3dbd182a	0.092331246
213	0x3d197917	0.037468996
214	0xbbffa488	-0.007801596
215	0xbd786b67	-0.0606493
216	0xbd357810	-0.044303954
217	0x3a3a51ca	0.00071075244
218	0x3d465e74	0.04842992
219	0x3d8942ff	0.067022316
220	0xbde34cd3	-0.110986374
221	0xbdb190f2	-0.08670224
222	0x3d4ba854	0.049721077
223	0xbd2443c9	-0.040103707
224	0x3dae45cf	0.08509409
225	0xbd888f1b	-0.0666792
226	0xbcf95629	-0.030436592
227	0x3d7963ef	0.06088632
228	0x3cff301e	0.031150874
229	0x3e65bc00	0.22434998
230	0x3dc2f11d	0.09518645
231	0x3d0b4702	0.034003265
232	0x3e1753db	0.14778082
233	0xbe19dfc9	-0.15026774
234	0x3e012e43	0.12615304
235	0xbe208c5d	-0.15678544
236	0xbc2d3128	-0.010570802
237	0xbd312003	-0.04324342
238	0x3dcc3a1c	0.09972021
239	0xbe2258be	-0.15854165
240	0xbd800a8b	-0.06252011
241	0xbd57f858	-0.052727073
242	0x3d88c2d1	0.06677783
243	0x3e0b46ec	0.13601273
244	0xbc9c8ed0	-0.019111067
245	0x3c9f7178	0.019463286
246	0x3de48b8a	0.111594275
247	0xbd0e8221	-0.03479207
248	0x3e40453c	0.18776411
249	0x3e1ce7e6	0.15322837
250	0xbdc1e2b7	-0.094670705
251	0x3c39d718	0.011342786
252	0x3e6e95d4	0.23299342
253	0xbc241818	-0.01001551
254	0xbca60bde	-0.02026933
255	0x3d396815	0.045265276

layers.0.bias f4 [200]
0	0x3e8575c9	0.26066425
1	0xbe12616e	-0.14294979
2	0xbd74f518	-0.059804052
3	0xbb3b4c88	-0.0028579552
4	0x3dc2ff39	0.09521336
5	0xbe678e8b	-0.2261297
6	0x3d0d5f53	0.034514736
7	0x3d6c5188	0.05769494
8	0xbd9b0973	-0.07570162
9	0x3c9d2293	0.019181525
10	0x3d985401	0.074378975
11	0xbadffb13	-0.0017088376
12	0x3c1cf6bd	0.009580311
13	0xbd71d027	-0.0590364
14	0xbd5f8d6e	-0.054578237
15	0x3e9d6f26	0.30748862
16	0x3cbf6145	0.023361811
17	0x3e56d4d3	0.20979623
18	0xbd228ef9	-0.03968713
19	0xbdeda09d	-0.116029
20	0x3e2d4d90	0.16924119
21	0x3def84b0	0.1169523
22	0x3bb043ad	0.0053791613
23	0xbd7f35b9	-0.062307093
24	0xbe3a6f16	-0.18206438
25	0x3deb9a50	0.11504042
26	0x3e8ce02b	0.27514777
27	0xbda62267	-0.081120305
28	0xbd3134eb	-0.043263357
29	0x3e83ecf6	0.25766724
30	0x3da7fa15	0.08201996
31	0x3da40b76	0.080099985
32	0x3e268168	0.16260302
33	0x3c1d6c5a	0.009608353
34	0x3e2a43ca	0.16627422
35	0xbdad19a3	-0.084521554
36	0xbd59e8c6	-0.053200506
37	0x3cddb9e7	0.027066184
38	0x3df0058b	0.11719807
39	0x3d16de55	0.036833126
40	0xbd891112	-0.06692709
41	0x3d857f4d	0.06518421
42	0xbddbd01f	-0.10733055
43	0x3e39460f	0.18093131
44	0x3e9027c8	0.2815535
45	0x3e616200	0.2201004
46	0xbe94da5e	-0.2907285
47	0xbe0f6099	-0.14001693
48	0x3e214f0b	0.15752809
49	0x3e54c75c	0.20779175
50	0xbe14ff03	-0.14550404
51	0xbe5eaf7c	-0.2174663
52	0xbdb899c1	-0.09013701
53	0x3df9bca9	0.12194187
54	0xbda9834e	-0.082769975
55	0xbea9c6fd	-0.3315963
56	0xbde61f90	-0.11236489
57	0xbc3b410c	-0.011429083
58	0x3e7906b4	0.24318963
59	0x3ddd2dce	0.10799752
60	0x3d599f78	0.053130597
61	0xbd8569b0	-0.06514299
62	0xbdd71216	-0.105014965
63	0x3e60953b	0.21931927
64	0x3e6ae4a9	0.2293879
65	0xbc71d14c	-0.014759373
66	0xbd11cc7d	-0.035595406
67	0xbe2bd77c	-0.1678142
68	0x3e292a29	0.16519989
69	0xbe42a7a7	-0.19009267
70	0x3d4c4852	0.049873658
71	0xbe2cc794	-0.16873008
72	0x3e208785	0.15676697
73	0xbd67a67a	-0.05655525
74	0xbdabba59	-0.08385152
75	0x3e4f88bd	0.20267005
76	0x3dc1b813	0.094589375
77	0xbdabb3d0	-0.08383906
78	0x3df1ec99	0.118127055
79	0xbbd8461f	-0.006600156
80	0x3cf1b98e	0.029507425
81	0xbd2ce3d6	-0.04220947
82	0xbcf9c479	-0.030489193
83	0xbe101f8d	-0.14074536
84	0x3dd1acf5	0.10238067
85	0xbe554ee0	-0.2083087
86	0x3c22e67f	0.00994265
87	0x3dfa29de	0.12215017
88	0xbd2c9e75	-0.042143304
89	0x3e5d8625	0.21633203
90	0xbc9b2329	-0.018937664
91	0xbe3d2780	-0.184721
92	0x3e8cbbcb	0.27487025
93	0xbd4d80ed	-0.05017178
94	0x3e0ba879	0.13638486
95	0x3c55e538	0.013055138
96	0x3dcdc663	0.10047605
97	0xbe569ae3	-0.20957522
98	0x3df44640	0.119274616
99	0xbd3077a6	-0.043082856
100	0xbdcd18e6	-0.100145146
101	0x3d874546	0.0660501
102	0x3e559f0b	0.20861451
103	0x3df6af26	0.12045126
104	0x3c370059	0.0111695165
105	0xbcc5b6e2	-0.024135057
106	0x3ebe6039	0.37182787
107	0x3e2954e1	0.16536285
108	0x3c2d18f0	0.010565028
109	0xbd747891	-0.059685294
110	0x3e1b633f	0.15174578
111	0x3d17a3ea	0.037021555
112	0x3d277a73	0.04088826
113	0xbdd4ba37	-0.1038708
114	0x3e0eb95d	0.13937898
115	0xbdb6b669	-0.08921511
116	0x3d8716cc	0.06596145
117	0xbda7fede	-0.08202909
118	0xbc269a7a	-0.010168666
119	0xbe49a203	-0.19690709
120	0x3def9dd2	0.11700024
121	0xbd9f39ed	-0.0777472
122	0xbe8f09a8	-0.27937055
123	0x3d38db56	0.04513105
124	0x3e28cf6d	0.16485377
125	0xbdbcc2fc	-0.09216878
126	0xbd959912	-0.073045865
127	0x3d0622aa	0.032747902
128	0x3d447a24	0.047968045
129	0x3e2e1efb	0.17004006
130	0x3e2cf5bd	0.16890617
131	0x3e49a0cf	0.1969025
132	0x3d860c1d	0.06545279
133	0x3d42b053	0.047531437
134	0xbda43612	-0.080181256
135	0xbd371f0f	-0.044707354
136	0x3c91bb16	0.017789405
137	0xbcb14f8c	-0.021644376
138	0x3e9f691c	0.3113488
139	0x3cc9c6c3	0.02463091
140	0x3eb4e7aa	0.35332996
141	0xbe048a93	-0.12943487
142	0xbdd6606e	-0.10467611
143	0x3e2f50a4	0.17120606
144	0xbe0e4abd	-0.13895698
145	0x3d3e7476	0.046497785
146	0x3db5472b	0.08851465
147	0x3d9f4da5	0.077784814
148	0xbc0ced6e	-0.0086015295
149	0xbd589e12	-0.052885123
150	0x3e3779bb	0.1791753
151	0xbdb48c49	-0.0881582
152	0xbe27b16d	-0.16376276
153	0xbde0148e	-0.109414205
154	0x3c44e297	0.012016914
155	0x3d653203	0.055955898
156	0x3d8a641e	0.06757377
157	0x3d91f299	0.0712635
158	0xbdb23ab2	-0.087026015
159	0x3dde824e	0.108646974
160	0x3e2aab78	0.16666973
161	0x3e25e768	0.16201556
162	0xbe83f0ed	-0.2576975
163	0x3e1120ee	0.14172718
164	0xbd6ef64f	-0.058340367
165	0xbbe041a5	-0.006843763
166	0x3b928075	0.0044708797
167	0x3d08549d	0.03328382
168	0x3e447e61	0.19188835
169	0xbe9e9b04	-0.30977643
170	0xbd8ce4d6	-0.068795845
171	0x3c8ef23e	0.017449494
172	0x3e2be445	0.16786297
173	0xbdd0879d	-0.10182116
174	0x3d8d7128	0.069063485
175	0x3b576569	0.0032866842
176	0xbd7224f4	-0.059117272
177	0x3e770cfb	0.24126045
178	0xbe8450c4	-0.2584287
179	0xbebff903	-0.37494668
180	0x3de875ec	0.11350617
181	0xbd2c9e50	-0.042143166
182	0x3e1c6373	0.15272312
183	0x3dc7c833	0.09754982
184	0x3d1ebbc4	0.038753286
185	0xbc1d1d13	-0.009589451
186	0x3e1bf811	0.15231349
187	0x3d568528	0.05237308
188	0x3ddc4458	0.10755223
189	0x3e076fd4	0.13226253
190	0xbe4dc8cc	-0.20096129
191	0x3deb2e9d	0.114835
192	0xbd7dfc89	-0.062008414
193	0xbd0c2a93	-0.03422029
194	0x3e008a60	0.12552786
195	0x3e31bae7	0.17356454
196	0xbdf4839c	-0.11939165
197	0xbd9cecc7	-0.07662349
198	0x3cbd965f	0.023142992
199	0x3e4f6248	0.20252335

layers.2.weight f4 [200]
0	0x3f824c94	1.017962
1	0x3f7b2a1c	0.9811113
2	0x3f736d3a	0.9508854
3	0x3f827fff	1.0195311
4	0x3f810bbd	1.0081707
5	0x3f827a2e	1.0193536
6	0x3f80367d	1.0016629
7	0x3f80fe8a	1.0077679
8	0x3f7efdd3	0.99606055
9	0x3f82004f	1.0156344
10	0x3f768be4	0.96307206
11	0x3f71ce67	0.9445557
12	0x3f825857	1.0183209
13	0x3f8951dd	1.0728108
14	0x3f85ff8f	1.0468615
15	0x3f86854a	1.0509427
16	0x3f7a767c	0.9783704
17	0x3f829637	1.0202092
18	0x3f80683d	1.0031811
19	0x3f802077	1.0009907
20	0x3f80ff71	1.0077955
21	0x3f803e9d	1.0019108
22	0x3f7ca4b9	0.98688847
23	0x3f7dbc07	0.9911503
24	0x3f76b466	0.96369016
25	0x3f805bbe	1.0027997
26	0x3f810851	1.0080663
27	0x3f7c94c8	0.9866452
28	0x3f7b5997	0.9818358
29	0x3f81db90	1.014513
30	0x3f85a84d	1.0441986
31	0x3f7e6f05	0.9938815
32	0x3f828dca	1.019952
33	0x3f810175	1.007857
34	0x3f8edaf9	1.1160575
35	0x3f8a43c4	1.080193
36	0x3f82d453	1.0221046
37	0x3f8036d2	1.001673
38	0x3f79b16f	0.9753637
39	0x3f7fe64d	0.99960786
40	0x3f77146d	0.9651554
41	0x3f7fb0bb	0.99879044
42	0x3f7ef5cb	0.995938
43	0x3f7a4323	0.9775869
44	0x3f7c11cb	0.9846465
45	0x3f854a68	1.0413332
46	0x3f7dd3ed	0.991515
47	0x3f7bbd88	0.98336077
48	0x3f7780aa	0.966807
49	0x3f7920ce	0.9731568
50	0x3f7ac5aa	0.9795786
51	0x3f7f5936	0.997455
52	0x3f7357c3	0.9505579
53	0x3f80fd6a	1.0077336
54	0x3f7fc61f	0.99911684
55	0x3f8116e9	1.0085117
56	0x3f7beaab	0.9840495
57	0x3f80efbd	1.0073162
58	0x3f8185cc	1.0118957
59	0x3f7b86a1	0.982523
60	0x3f7f0a23	0.9962484
61	0x3f78e066	0.97217405
62	0x3f77d2dd	0.96806127
63	0x3f83a401	1.0284425
64	0x3f824eb7	1.0180272
65	0x3f8643b9	1.0489417
66	0x3f8dea2e	1.1087091
67	0x3f78fccc	0.9726074
68	0x3f738f0b	0.9514014
69	0x3f7f84c6	0.9981197
70	0x3f7e8eb5	0.99436504
71	0x3f7ac84d	0.97961885
72	0x3f7e463b	0.99325913
73	0x3f821966	1.0164001
74	0x3f7b96b6	0.9827684
75	0x3f81fc32	1.0155089
76	0x3f819b68	1.0125551
77	0x3f802d10	1.0013752
78	0x3f7c74fa	0.9861599
79	0x3f872331	1.0557615
80	0x3f81075a	1.0080369
81	0x3f84ba49	1.036935
82	0x3f7c1128	0.9846368
83	0x3f7d184d	0.98865205
84	0x3f7d53fd	0.9895628
85	0x3f7e4ca8	0.9933572
86	0x3f830cea	1.0238316
87	0x3f7dc017	0.9912123
88	0x3f804fd3	1.002436
89	0x3f7a6c86	0.97821844
90	0x3f8c1097	1.0942563
91	0x3f7c311b	0.9851243
92	0x3f8297eb	1.0202612
93	0x3f81ba44	1.0134969
94	0x3f80f79e	1.0075567
95	0x3f7360c9	0.9506956
96	0x3f7774f5	0.9666284
97	0x3f849029	1.0356494
98	0x3f85e354	1.046
99	0x3f6f37ef	0.9344472
100	0x3f82524a	1.0181363
101	0x3f82450e	1.0177324
102	0x3f80ddcd	1.0067688
103	0x3f7e82ae	0.9941815
104	0x3f7860e2	0.9702283
105	0x3f83c66e	1.0294931
106	0x3f7b877f	0.98253626
107	0x3f7b66f1	0.9820395
108	0x3f78ac94	0.97138333
109	0x3f796fcd	0.9743622
110	0x3f77a34f	0.96733564
111	0x3f81c29a	1.0137513
112	0x3f8076f4	1.0036302
113	0x3f785ac6	0.9701351
114	0x3f82bc99	1.0213805
115	0x3f797581	0.9744492
116	0x3f7ee8b6	0.9957384
117	0x3f77f93f	0.96864694
118	0x3f7bd866	0.9837707
119	0x3f7ccd15	0.9875043
120	0x3f7beb24	0.9840567
121	0x3f7db7ef	0.99108785
122	0x3f807554	1.0035806
123	0x3f7f228a	0.9966208
124	0x3f7dcfa5	0.99144965
125	0x3f798e0f	0.9748239
126	0x3f81ce6b	1.0141119
127	0x3f813304	1.0093694
128	0x3f819837	1.0124577
129	0x3f7aeec0	0.98020554
130	0x3f7de1e9	0.99172837
131	0x3f7a4f81	0.97777563
132	0x3f80962a	1.0045826
133	0x3f8072dc	1.0035052
134	0x3f74977e	0.9554366
135	0x3f81af2d	1.0131584
136	0x3f7d2b33	0.9889404
137	0x3f80c9b0	1.006155
138	0x3f8307f5	1.0236803
139	0x3f74fe32	0.9570037
140	0x3f7b010a	0.9804846
141	0x3f7da3f7	0.99078315
142	0x3f74d8e2	0.95643437
143	0x3f7e4b1c	0.9933336
144	0x3f7d23fc	0.9888303
145	0x3f772d51	0.9655352
146	0x3f811d13	1.0086998
147	0x3f692dd9	0.9108558
148	0x3f765b1d	0.9623278
149	0x3f766eb7	0.9626269
150	0x3f85082f	1.0393122
151	0x3f80265f	1.001171
152	0x3f735fb8	0.9506793
153	0x3f7b7a39	0.9823337
154	0x3f88617e	1.0654752
155	0x3f7ff62e	0.99985015
156	0x3f809b82	1.0047457
157	0x3f7a1d5b	0.9770104
158	0x3f734c21	0.9503804
159	0x3f7d53ef	0.989562
160	0x3f7b881d	0.9825457
161	0x3f81d8bc	1.0144267
162	0x3f6d1c18	0.9262099
163	0x3f846dea	1.0346043
164	0x3f8319cb	1.0242246
165	0x3f811118	1.0083342
166	0x3f7c9151	0.98659235
167	0x3f7dfae0	0.9921093
168	0x3f81e345	1.0147482
169	0x3f7de24e	0.9917344
170	0x3f827236	1.0191104
171	0x3f833dda	1.0253251
172	0x3f7daae5	0.9908889
173	0x3f86f6f1	1.054411
174	0x3f7ebf41	0.9951058
175	0x3f7f1443	0.9964029
176	0x3f7b2579	0.98104054
177	0x3f834dde	1.0258138
178	0x3f7172a5	0.9431556
179	0x3f74cc44	0.95624185
180	0x3f764b7c	0.9620893
181	0x3f81abeb	1.013059
182	0x3f7b6c23	0.9821188
183	0x3f7e552e	0.99348724
184	0x3f78248f	0.96930784
185	0x3f7fe9ef	0.9996633
186	0x3f88ee9f	1.0697821
187	0x3f855919	1.0417815
188	0x3f77c5fa	0.96786463
189	0x3f744d7c	0.9543073
190	0x3f743a9b	0.95401925
191	0x3f7e26b6	0.9927782
192	0x3f715b9d	0.94280416
193	0x3f7d6cd3	0.9899418
194	0x3f7e9a60	0.9945431
195	0x3f7a3b2c	0.9774654
196	0x3f804bb5	1.0023104
197	0x3f7fc651	0.9991198
198	0x3f779093	0.9670498
199	0x3f76ac51	0.96356684

layers.2.bias f4 [200]
0	0x3d52eac2	0.051493414
1	0xbd2a1dd0	-0.041532338
2	0xbd84f671	-0.064923175
3	0x3d74e73e	0.059790842
4	0xbdabeeeb	-0.08395179
5	0x3d6d17bf	0.057883974
6	0x3d836d94	0.06417385
7	0x3bb4a43d	0.005512743
8	0xbd3e6532	-0.046483226
9	0xbd9af853	-0.07566895
10	0xbd80d0aa	-0.062897995
11	0xbda7031f	-0.08154892
12	0xbd501206	-0.05079844
13	0x3df9fff3	0.122070216
14	0x3d97c515	0.07410637
15	0x3d9210ed	0.071321346
16	0x3d75c0ed	0.05999844
17	0x3dca1cf3	0.09868803
18	0xbbdae992	-0.006680676
19	0xbd7ce065	-0.061737437
20	0x3d7ad73d	0.061240423
21	0x3d298b0f	0.041392382
22	0xbd5cfb5d	-0.053950656
23	0xbcd11729	-0.025523739
24	0xbd7680d2	-0.060181446
25	0x3daba7ac	0.0838159
26	0x3d9fda20	0.07805276
27	0xbd2424a5	-0.04007401
28	0x3d99ea7c	0.075154275
29	0x3d760474	0.06006284
30	0x3d5aa15f	0.05337655
31	0xbcdd3655	-0.027003447
32	0xbd8743ae	-0.06604706
33	0xbd296e54	-0.041364983
34	0x3d5ae363	0.05343951
35	0x3d893425	0.06699399
36	0x3e1cd9c5	0.15317447
37	0xbd869b48	-0.06572586
38	0xbd8674ee	-0.06565271
39	0x3b8dd62a	0.004328509
40	0xbd3ecedb	-0.04658399
41	0xbaddad12	-0.0016912541
42	0x3d2077d2	0.03917677
43	0xbd47c5a1	-0.048772458
44	0x3c946926	0.018116545
45	0x3d646286	0.05575802
46	0xbb2da41d	-0.0026495524
47	0x3d837095	0.06417958
48	0x3ce404be	0.027834293
49	0x3d2c74aa	0.042103447
50	0xbd633ec9	-0.0554798
51	0x3d3c5dc5	0.045987863
52	0xbdb1dac7	-0.086843066
53	0x3c86b05e	0.01644152
54	0x3bca4bf5	0.0061736056
55	0xbd0f2dff	-0.034955975
56	0x3da672b1	0.081273444
57	0xbd2db7dd	-0.042411674
58	0xbd463abf	-0.04839587
59	0x3dab4312	0.08362402
60	0x3da02b21	0.07820726
61	0xbd810c89	-0.06301219
62	0x3d800665	0.0625122
63	0x3de12fa5	0.109954156
64	0x3d9d0a1d	0.076679446
65	0x3d647e68	0.055784613
66	0x3d575ff3	0.05258174
67	0xbd988f52	-0.07449211
68	0xbd2ed989	-0.042687926
69	0xbd8f8177	-0.07007115
70	0xbd47e3d6	-0.048801266
71	0xbd28a86e	-0.041176252
72	0x3d019d32	0.031644054
73	0x3db90e9c	0.0903599
74	0xbd054c98	-0.03254375
75	0x3d5d2959	0.05399451
76	0xbd834345	-0.06409315
77	0xbd97593b	-0.07390066
78	0x3d18a9be	0.037271254
79	0x3dc56052	0.09637512
80	0xbd67dcb2	-0.056606956
81	0xbdaf6603	-0.08564379
82	0x3df6c13c	0.12048575
83	0xbce6d86f	-0.028179375
84	0x3d3a1fa2	0.045440324
85	0xbd4f3bb7	-0.050594058
86	0x3da0cd72	0.078516856
87	0x3d9307ec	0.07179245
88	0xbd638a61	-0.05555189
89	0x3e21aa12	0.15787533
90	0x3dde6fe7	0.108611874
91	0xbd81d62e	-0.0633968
92	0x3d8525a7	0.06501322
93	0x3d92a8ea	0.07161124
94	0x3dcfe259	0.10150594
95	0xbd959a6d	-0.07304845
96	0xbcb1ebf1	-0.021718951
97	0xbd1ac1e5	-0.03778257
98	0x3d94a2bd	0.07257602
99	0xbd97dc1f	-0.07415032
100	0xbd7f5baa	-0.062343277
101	0xbdafe32f	-0.08588254
102	0xbd88c290	-0.06677735
103	0xbd4b0638	-0.049566478
104	0xbd84c081	-0.0648203
105	0x3d8866a2	0.06660201
106	0x3d93f57c	0.07224557
107	0x3d7a6ba5	0.061137814
108	0x3d3e691d	0.046486963
109	0xbd0e2b12	-0.034709044
110	0xbd6ea732	-0.05826492
111	0xbd3a81b7	-0.045533862
112	0x3dbb5b48	0.0914827
113	0xbd0b7674	-0.034048513
114	0x3d31341e	0.043262593
115	0xbd87ea61	-0.06636501
116	0xbd0189d5	-0.031625587
117	0xbd3d3014	-0.04618843
118	0xbd521a32	-0.051294513
119	0xbd8b3c6c	-0.06798634
120	0xbd7d1422	-0.06178678
121	0x3d473775	0.048636872
122	0xbd8d275c	-0.06892273
123	0x3d1342ef	0.035952505
124	0xbd90db1e	-0.07073043
125	0xbd5a5156	-0.053300224
126	0xbd6c5af6	-0.057703935
127	0x3d77d65c	0.060507163
128	0x3d3cc4c4	0.046086088
129	0xbd8bdcae	-0.06829201
130	0xbd6fe94f	-0.05857211
131	0xbd59b3e4	-0.053150073
132	0x3cb3fa4b	0.021969935
133	0x3d3785e3	0.04480542
134	0x3d845da6	0.064631745
135	0x3ddbc735	0.10731355
136	0xbd9e5d88	-0.077326834
137	0x3d902d24	0.0703986
138	0x3d503ae8	0.050837427
139	0xbd246304	-0.04013349
140	0x3daa9d24	0.083307534
141	0x3d4c30ec	0.049851343
142	0xbd742fbb	-0.05961583
143	0xbc9d4742	-0.019199017
144	0xbd8b68c4	-0.06807092
145	0xbd6e215f	-0.058137294
146	0x3d054973	0.03254075
147	0xbd06f231	-0.032945815
148	0xbd1dabdd	-0.03849398
149	0xbd5ea165	-0.054353137
150	0x3cc223c8	0.023698702
151	0xbd2bc12f	-0.04193228
152	0xbd2b4fc7	-0.04182413
153	0x3d020089	0.03173879
154	0x3d530210	0.05151564
155	0xbd73b101	-0.059494976
156	0xbd858054	-0.06518617
157	0x3d7e2bca	0.06205348
158	0xbd36c873	-0.044624757
159	0xbd882360	-0.06647372
160	0xbd9ce1b1	-0.07660235
161	0x3d830999	0.06398315
162	0xbd9ec887	-0.07753091
163	0x3d8e2d3c	0.069422215
164	0x3d84e685	0.064892806
165	0xbd67aa31	-0.05655879
166	0xbb5aebd2	-0.003340472
167	0xbd7a9e60	-0.061186194
168	0x3d84c98a	0.06483753
169	0x3c917912	0.017757926
170	0x3d63f592	0.055654116
171	0x3dcee287	0.101018004
172	0xbd484cc6	-0.04890134
173	0x3d6f204b	0.058380406
174	0xbc88901f	-0.016670285
175	0x3d89b5c0	0.06724119
176	0xbd6681e9	-0.056276236
177	0x3d8b5cfc	0.06804845
178	0xbd2e7fa5	-0.0426022
179	0xbd85e6a2	-0.0653813
180	0xbd8db888	-0.06919962
181	0x3da5291d	0.08064482
182	0x3c7b49ea	0.015337447
183	0x3da0774c	0.07835254
184	0xbdb6fc72	-0.08934869
185	0x3d9b5678	0.07584852
186	0x3d95d030	0.07315099
187	0x3da9a582	0.08283521
188	0xbc9de881	-0.019275906
189	0x3d481ef7	0.048857655
190	0xbd429cf4	-0.047512963
191	0xbd0f3c42	-0.034969576
192	0xbd89ed67	-0.06734734
193	0x3be16744	0.0068787653
194	0xbd48a1fd	-0.04898261
195	0x3da57eb0	0.08080804
196	0x3d333e6e	0.04376071
197	0x3d9cb44e	0.07651578
198	0xbaf4aa8e	-0.0018666552
199	0x3c60facc	0.01373167

layers.2.running_mean f4 [200]
0	0x3ee9e411	0.45681813
1	0x3e29c747	0.16579925
2	0x3e042b19	0.12907065
3	0x3e5e1683	0.21688275
4	0x3e58b5ce	0.21163103
5	0x3d69b154	0.05705388
6	0x3e568890	0.20950532
7	0x3e851d69	0.25999
8	0x3e3f8245	0.18702038
9	0x3de09ecb	0.10967787
10	0x3e9fd76a	0.31219035
11	0x3e74445d	0.23854204
12	0x3e7a791c	0.24460262
13	0x3dbe6e0f	0.09298336
14	0x3e22df21	0.1590543
15	0x3ef9a2e4	0.48757088
16	0x3e2f5dfc	0.17125696
17	0x3ec24157	0.37940475
18	0x3dc9b126	0.098482415
19	0x3db3b6ca	0.087750986
20	0x3e9e3f5a	0.30907708
21	0x3ebcf6f2	0.36907154
22	0x3e0a0e69	0.1348206
23	0x3dc09256	0.09402911
24	0x3e162570	0.14662719
25	0x3ed0d75b	0.40789303
26	0x3e9d6b19	0.30745772
27	0x3db2f2bb	0.087377034
28	0x3ebf9f8b	0.3742641
29	0x3f18a651	0.5962878
30	0x3e9eee12	0.31041008
31	0x3e697cb8	0.22801483
32	0x3eaed1c2	0.34144408
33	0x3e834015	0.25634828
34	0x3ed22c6b	0.41049513
35	0x3d93336f	0.071875446
36	0x3db6f366	0.08933143
37	0x3de6c752	0.11268486
38	0x3e29dd5f	0.16588353
39	0x3eb2205c	0.34790313
40	0x3de96324	0.11395863
41	0x3e3cee82	0.18450359
42	0x3e77d230	0.24201274
43	0x3e9c39a4	0.30512726
44	0x3e791293	0.24323492
45	0x3eb274ce	0.3485474
46	0x3d2cc9a0	0.042184472
47	0x3e7b9cbc	0.24571508
48	0x3e9d87ca	0.3076766
49	0x3e9f1084	0.31067288
50	0x3e24f7f5	0.16110213
51	0x3da49d9e	0.080378756
52	0x3dce511c	0.10074064
53	0x3e9a144f	0.3009362
54	0x3de6f9b1	0.112780936
55	0x3d282bbf	0.041057345
56	0x3e75cf47	0.24004851
57	0x3ecb3627	0.39689752
58	0x3f0ac44a	0.54205763
59	0x3e637327	0.22211896
60	0x3e74ae86	0.238947
61	0x3e7bef97	0.24603115
62	0x3e6a9d94	0.22911674
63	0x3e8da31a	0.276635
64	0x3f00f89a	0.50379336
65	0x3e69d134	0.22833711
66	0x3d8c565e	0.06852411
67	0x3de3736a	0.11105998
68	0x3eba5f37	0.36400768
69	0x3d96cad4	0.07362905
70	0x3e067ee5	0.13134344
71	0x3e0d9d0a	0.13829437
72	0x3ed1b878	0.4096105
73	0x3def73f5	0.11692039
74	0x3e092eac	0.1339671
75	0x3eaa9fa3	0.33324918
76	0x3e29209a	0.16516343
77	0x3df278b8	0.118394315
78	0x3f0dd13d	0.553974
79	0x3daae88f	0.08345138
80	0x3e0efc60	0.13963461
81	0x3e522b62	0.20524362
82	0x3eb1d3d0	0.34731913
83	0x3db70e5f	0.08938288
84	0x3e74ac02	0.23893741
85	0x3d664006	0.0562134
86	0x3e485b37	0.19566046
87	0x3eda344d	0.42618027
88	0x3db8ee8a	0.09029873
89	0x3e8173ba	0.25283605
90	0x3da0c5b4	0.07850209
91	0x3dbdec0a	0.092735365
92	0x3f1446e6	0.5792068
93	0x3e4d00b0	0.20019794
94	0x3e8c564f	0.27409598
95	0x3e9e5700	0.3092575
96	0x3ed90b96	0.42391652
97	0x3cf9ecd1	0.03050843
98	0x3e93c0bf	0.2885799
99	0x3e07d758	0.13265741
100	0x3d941f54	0.07232538
101	0x3e861869	0.26190498
102	0x3e2bbe62	0.16771844
103	0x3e4c4dea	0.19951597
104	0x3e4df37f	0.20112418
105	0x3e9927ef	0.2991328
106	0x3f06dd64	0.52681565
107	0x3eb70030	0.3574233
108	0x3ea3c84b	0.3198875
109	0x3e53e096	0.20691141
110	0x3e43b558	0.19112146
111	0x3e4d1d3e	0.20030686
112	0x3e2bef51	0.1679051
113	0x3e856cc8	0.26059556
114	0x3ee05985	0.43818298
115	0x3e5ba87d	0.21450992
116	0x3e17f367	0.14838944
117	0x3e44e850	0.19229245
118	0x3de15b20	0.11003709
119	0x3e0eb24b	0.13935201
120	0x3e03f030	0.12884593
121	0x3e5865d4	0.21132594
122	0x3d517143	0.051133405
123	0x3e53a5c5	0.20668705
124	0x3e4b3e64	0.19848019
125	0x3dfeecd4	0.12447515
126	0x3d9a0531	0.075205214
127	0x3e94bcbe	0.2905025
128	0x3e95b944	0.2924291
129	0x3ee02e28	0.43785214
130	0x3ebfd55e	0.37467474
131	0x3e6e4fe7	0.23272668
132	0x3eb7133e	0.35756868
133	0x3e823770	0.2543292
134	0x3e81f5c6	0.25382823
135	0x3db55253	0.08853593
136	0x3e6eec54	0.2333234
137	0x3eaf8cfd	0.34287253
138	0x3eedfe80	0.4648323
139	0x3e376297	0.17908703
140	0x3ee0390d	0.43793526
141	0x3de590fb	0.112092935
142	0x3dde7a22	0.10863139
143	0x3eb618ec	0.3556589
144	0x3d863b48	0.06554276
145	0x3e2e6897	0.17032085
146	0x3e0a5ff3	0.13513164
147	0x3e190960	0.14944983
148	0x3e6f2707	0.23354732
149	0x3e1b3415	0.15156586
150	0x3e9622cb	0.2932342
151	0x3e23b864	0.15988308
152	0x3dfc3f34	0.123167425
153	0x3eb1ca92	0.3472486
154	0x3e650a69	0.22367252
155	0x3e54c2b6	0.20777401
156	0x3e77b5b9	0.24190415
157	0x3eaf840c	0.3428043
158	0x3e47cd96	0.19512019
159	0x3e6d2e55	0.23162206
160	0x3e96183d	0.29315367
161	0x3eb20dff	0.34776303
162	0x3d771148	0.060319215
163	0x3e9654c6	0.29361552
164	0x3e8630b3	0.2620903
165	0x3e67200b	0.22570817
166	0x3e10ddb6	0.14147076
167	0x3e3bc644	0.18337351
168	0x3e7f1fd3	0.24914484
169	0x3d811b01	0.06303979
170	0x3e022ad2	0.12711647
171	0x3e77b4c2	0.24190047
172	0x3e2ee6c0	0.17080212
173	0x3e44414c	0.19165534
174	0x3e06e061	0.13171531
175	0x3ec4efb3	0.38464126
176	0x3e4063b4	0.18788034
177	0x3e960b14	0.29305327
178	0x3d9ad484	0.075600654
179	0x3d8f4e5b	0.06997367
180	0x3e01ae36	0.12664112
181	0x3e537475	0.20649894
182	0x3e9568f2	0.2918163
183	0x3ea21150	0.31653833
184	0x3e64508c	0.22296351
185	0x3e34080e	0.17581198
186	0x3e92fc46	0.28708094
187	0x3e357b8e	0.17722914
188	0x3e8dd69b	0.27702793
189	0x3eced976	0.40400285
190	0x3e03f519	0.12886466
191	0x3dd4aa5e	0.103840575
192	0x3dd17458	0.10227269
193	0x3e5d4bb2	0.21610907
194	0x3e4fd37d	0.2029552
195	0x3e9c5407	0.30532858
196	0x3e805ecc	0.25072324
197	0x3e6b7c63	0.22996669
198	0x3e6fc41a	0.2341465
199	0x3e92d5ca	0.28678733

layers.2.running_var f4 [200]
0	0x3d69ae41	0.057050947
1	0x3ddcd666	0.10783081
2	0x3d750124	0.05981554
3	0x3dd1e1bf	0.10248136
4	0x3dbb7a7f	0.09154224
5	0x3d6464d8	0.055760235
6	0x3d5e7923	0.054314744
7	0x3ddde833	0.10835304
8	0x3df0ea62	0.11763455
9	0x3d596042	0.053070314
10	0x3e49aeb1	0.19695546
11	0x3e064a85	0.13114364
12	0x3e089f3e	0.13341996
13	0x3d94cd58	0.07265729
14	0x3d937409	0.07199866
15	0x3dc17ac6	0.09447245
16	0x3d4ab8c4	0.049492612
17	0x3e5742fe	0.21021649
18	0x3dd1eed7	0.10250633
19	0x3d1dda56	0.0385383
20	0x3d535934	0.051598743
21	0x3e18a440	0.14906406
22	0x3db90179	0.09033484
23	0x3d61e2db	0.055147987
24	0x3db2e5d3	0.08735242
25	0x3e4768ed	0.1947362
26	0x3d66c38e	0.05633884
27	0x3d6ab6de	0.057303302
28	0x3e5d035c	0.21583313
29	0x3e9f4700	0.31108856
30	0x3e09af8f	0.13445877
31	0x3ccb0bf4	0.024785973
32	0x3e5e66e4	0.21718937
33	0x3dfb33ad	0.12265716
34	0x3e1b408f	0.15161346
35	0x3d79dae6	0.060999773
36	0x3d3c8063	0.046020877
37	0x3d3691e0	0.04457271
38	0x3e00913e	0.12555405
39	0x3e1ee344	0.15516382
40	0x3db4b430	0.088234305
41	0x3c81d070	0.015846461
42	0x3e05697f	0.13028525
43	0x3e5caa85	0.21549423
44	0x3e03c051	0.12866332
45	0x3db48aa7	0.08815508
46	0x3d08211c	0.0332347
47	0x3e13f8ea	0.14450422
48	0x3e22faa8	0.1591593
49	0x3e3f3f7a	0.18676558
50	0x3db1581e	0.08659385
51	0x3d38011c	0.044922933
52	0x3d8ee142	0.06976558
53	0x3d0e63de	0.03476321
54	0x3dca1bf3	0.09868612
55	0x3cd5a48c	0.026079439
56	0x3daedefa	0.08538623
57	0x3e8b413a	0.271982
58	0x3e3b8bbd	0.18315025
59	0x3d1825de	0.037145488
60	0x3daf9ee4	0.08575228
61	0x3e10a618	0.1412586
62	0x3dece954	0.11567941
63	0x3d0ae15b	0.033906322
64	0x3e85e6ee	0.26152748
65	0x3de1d6da	0.11027308
66	0x3d498e5d	0.049208034
67	0x3dbf5fe7	0.09344464
68	0x3e5bb0f0	0.21454215
69	0x3d74f0b5	0.05979987
70	0x3d90ca8f	0.07069885
71	0x3e2e251e	0.17006347
72	0x3e7cdb54	0.24693042
73	0x3c9849d1	0.018589886
74	0x3d9dd87f	0.07707309
75	0x3d419e4e	0.04727011
76	0x3dc676ab	0.09690603
77	0x3dbb0269	0.09131319
78	0x3e86bcf8	0.26316047
79	0x3d8369e0	0.064166784
80	0x3db5ec88	0.088830054
81	0x3e1730a7	0.14764653
82	0x3e4eedf1	0.20207955
83	0x3dcb37e1	0.099227674
84	0x3d809ebf	0.062802784
85	0x3d4a9d82	0.049466617
86	0x3da79e50	0.081844926
87	0x3db3af21	0.087736376
88	0x3d461c9c	0.048367128
89	0x3d82ce43	0.063869976
90	0x3d6132cd	0.054980088
91	0x3dbabb79	0.09117789
92	0x3e595eeb	0.21227615
93	0x3d65dd96	0.056119524
94	0x3d97c599	0.07410736
95	0x3df6fa93	0.12059512
96	0x3e8304a8	0.2558949
97	0x3cba7f37	0.022765739
98	0x3d88d48f	0.06681167
99	0x3d9e94c6	0.0774322
100	0x3ca887c1	0.020572545
101	0x3e2d071b	0.16897242
102	0x3d9be99f	0.07612919
103	0x3e0a6f46	0.1351901
104	0x3e147f2c	0.14501637
105	0x3dc79138	0.09744495
106	0x3e1af9bb	0.15134327
107	0x3e157892	0.14596775
108	0x3e0e1c3f	0.13877963
109	0x3dd8c437	0.105843
110	0x3e13be88	0.1442815
111	0x3e122660	0.14272451
112	0x3d8a65b1	0.06757677
113	0x3e2f3f58	0.17114007
114	0x3e74f1ef	0.23920415
115	0x3df3bac0	0.11900854
116	0x3dbc5078	0.09195036
117	0x3e1f6e37	0.15569387
118	0x3d941827	0.07231169
119	0x3ddd7b76	0.10814564
120	0x3d7e0a0f	0.06202131
121	0x3dbfecd0	0.0937134
122	0x3d3965c9	0.045263086
123	0x3db87360	0.09006381
124	0x3d9882a1	0.074467905
125	0x3dadcf81	0.08486844
126	0x3d69e0c2	0.05709911
127	0x3dad2da2	0.084559694
128	0x3de1e289	0.11029536
129	0x3e76a60b	0.24086778
130	0x3e70e7f2	0.2352598
131	0x3e140890	0.14456391
132	0x3e5808e8	0.21097147
133	0x3dc002f0	0.0937556
134	0x3e0a0391	0.13477923
135	0x3c794fde	0.015216796
136	0x3e14b048	0.14520371
137	0x3dfc39ce	0.12315713
138	0x3d79e42f	0.06100863
139	0x3e01a06b	0.12658851
140	0x3d40765b	0.046987873
141	0x3d725d7c	0.059171185
142	0x3dfae3c4	0.12250474
143	0x3e45f4e6	0.19331703
144	0x3d2e74b2	0.042591758
145	0x3de77d94	0.11303249
146	0x3dc9e3a9	0.09857876
147	0x3dfcefd1	0.12350429
148	0x3e268b02	0.16263965
149	0x3e133d4c	0.14378852
150	0x3d18882f	0.03723925
151	0x3d8dbfb3	0.06921329
152	0x3d99a165	0.07501487
153	0x3e86cd6f	0.26328608
154	0x3dccdad2	0.10002674
155	0x3dcb7931	0.09935225
156	0x3e29130b	0.1651117
157	0x3da17d19	0.078851886
158	0x3de76be6	0.11299877
159	0x3e0ab394	0.13545066
160	0x3e5753cb	0.21028058
161	0x3e0ea426	0.13929805
162	0x3d37b251	0.04484779
163	0x3df2f2a3	0.118626855
164	0x3da4c134	0.08044663
165	0x3e170f54	0.14751941
166	0x3df6b9a8	0.1204713
167	0x3e01066f	0.1260011
168	0x3da0a21d	0.07843421
169	0x3cfb6cd8	0.03069155
170	0x3d38d912	0.04512889
171	0x3e1e6531	0.15468289
172	0x3dd4092d	0.10353313
173	0x3dcdee03	0.10055163
174	0x3d9d09a3	0.07667854
175	0x3df0dcab	0.11760839
176	0x3db1b79d	0.086775996
177	0x3d8de92b	0.06929239
178	0x3d523b56	0.05132612
179	0x3d45ba3f	0.04827332
180	0x3d769d3d	0.060208548
181	0x3d9980f7	0.07495301
182	0x3e486597	0.19570003
183	0x3da891dd	0.08230946
184	0x3ddaae40	0.10677767
185	0x3d7f4643	0.062322866
186	0x3dcc6f32	0.09982146
187	0x3d0d71b7	0.034532275
188	0x3e2b3643	0.16719918
189	0x3dff3813	0.12461867
190	0x3db5ed2e	0.08883129
191	0x3d227ea2	0.039671548
192	0x3d58534c	0.052813813
193	0x3e04f381	0.12983514
194	0x3e29e1cb	0.1659004
195	0x3d33fa48	0.04393986
196	0x3df9a33e	0.12189339
197	0x3dc56062	0.09637524
198	0x3e06d80c	0.13168353
199	0x3e56c565	0.20973738

layers.4.weight f4 [100, 200]
0	0xbc40390c	-0.011732351
1	0x3d9470fd	0.07248113
2	0xbca8efaa	-0.020622093
3	0x3cf6fd0d	0.03014996
4	0x3dbafcb3	0.0913023
5	0x3d1982a9	0.037478123
6	0xbdd058e9	-0.10173208
7	0x3c9202d6	0.017823618
8	0x3a9d6028	0.0012006806
9	0xbca4d697	-0.020121856
10	0x3c3fc8a0	0.011705548
11	0x3d0449e1	0.03229702
12	0xbd09b7b9	-0.033622477
13	0x3d99202d	0.0747684
14	0xbda9f2ce	-0.082982644
15	0xbc9d00d3	-0.019165432
16	0xbd8f26b2	-0.069898024
17	0x3ab18714	0.0013544285
18	0xbd885c7d	-0.06658266
19	0xbd3a4711	-0.04547793
20	0x3cc4ccb4	0.024023391
21	0x3d06b74f	0.03288966
22	0xbc3b7ec5	-0.011443798
23	0x3c7e3701	0.015516044
24	0x3d9523e7	0.072822385
25	0xbd4a3364	-0.049365416
26	0x3aad312b	0.0013213506
27	0x3d05b551	0.03264362
28	0x3d2c4045	0.04205348
29	0x3d6d57b9	0.057944987
30	0xbda72fff	-0.081634514
31	0xbd41d0ae	-0.047318153
32	0x3d6167f5	0.05503078
33	0x3d81518d	0.06314383
34	0xbd932e64	-0.07186583
35	0x3c1800f6	0.009277573
36	0xbe645dcb	-0.22301404
37	0x3d8ee6c6	0.0697761
38	0xbd885659	-0.066570945
39	0x3d30fb7e	0.04320859
40	0x3d5d24e3	0.053990256
41	0x3d313c2f	0.043270286
42	0x3d806a69	0.06270296
43	0x3c9f649c	0.019457154
44	0xbc2cabff	-0.010539054
45	0x3da72c4b	0.08162745
46	0x39f4db85	0.0004670286
47	0x3c61fa6c	0.013792615
48	0x3d39a08b	0.04531912
49	0x3cc9da2a	0.024640162
50	0xbd4b1da1	-0.049588803
51	0xbc345aab	-0.011007945
52	0x3d100032	0.035156436
53	0x3d3530b1	0.04423589
54	0x3d2be49f	0.041966077
55	0x3d7f7c1b	0.062374216
56	0xbd576914	-0.052590445
57	0x3d97d434	0.074135214
58	0xbd13148c	-0.035908267
59	0xbba57c11	-0.0050501903
60	0xbe1785d3	-0.14797144
61	0x3d6152a8	0.055010468
62	0x3ced9f7c	0.029006712
63	0xb9bc29a2	-0.00035889173
64	0x3d8627d1	0.06550563
65	0x3cfebe0b	0.031096479
66	0x3d62074b	0.055182736
67	0x3d7169d9	0.058938835
68	0xbca1a9fc	-0.019734375
69	0xbc5342b4	-0.012894321
70	0x3d165b3c	0.0367081
71	0xbd30bf03	-0.043150913
72	0xbde5e5a4	-0.11225441
73	0x3cb7b398	0.022424504
74	0x3d735900	0.05941105
75	0xbd3c3a6f	-0.045954164
76	0x3abe482c	0.0014517359
77	0x3d2ff69a	0.042959787
78	0x3c877c9f	0.016538916
79	0x3bd0a82d	0.0063677044
80	0xbd2bca99	-0.04194126
81	0x3d0ef01d	0.03489696
82	0xbd35a597	-0.044347372
83	0x3b75a5da	0.0037482888
84	0xbd4ae9c5	-0.049539346
85	0xbd3d2f34	-0.046187595
86	0xbc2d7c38	-0.010588698
87	0xbca8ca66	-0.020604324
88	0x3d27de6d	0.040983606
89	0xbe10b386	-0.14130983
90	0xbc009cc7	-0.007849879
91	0xbd1c7553	-0.038197827
92	0xbd516185	-0.051118392
93	0xbd11db22	-0.035609372
94	0xbda1690a	-0.07881363
95	0xbc1ee745	-0.009698694
96	0x3cac5bd2	0.021039877
97	0x3cf54537	0.02994023
98	0xbd5224eb	-0.05130474
99	0xbd022db5	-0.03178187
100	0x3dfce8f3	0.12349119
101	0xbbb9dafa	-0.005671856
102	0x3b52cc38	0.003216518
103	0xbc32efbd	-0.010921416
104	0x3ccd3bd3	0.02505294
105	0xbd43574a	-0.047690667
106	0xbc245ce2	-0.010031911
107	0x3cba399b	0.022732547
108	0x3d00995e	0.031396262
109	0xbd4e8da3	-0.050428044
110	0xbd567b25	-0.052363534
111	0x3d2f8512	0.042851515
112	0xbdf846c8	-0.121228755
113	0xbc74a14e	-0.014931036
114	0x3c53f3a0	0.012936503
115	0x3dac1334	0.084021
116	0x3d7af2a1	0.061266545
117	0xbd4cd081	-0.050003532
118	0x3d21effc	0.039535508
119	0xbcf0485e	-0.029331382
120	0xbce7bcb6	-0.028288227
121	0xbbd63e36	-0.006538178
122	0x3be6a15b	0.007038278
123	0x3c829e6d	0.015944684
124	0x3d4835b7	0.04887935
125	0x3d288fce	0.041152768
126	0x3d6f121d	0.058366884
127	0xbd1582a4	-0.03650154
128	0xbdee7b9f	-0.116446726
129	0xbccc68d5	-0.024952332
130	0x3dba217d	0.09088419
131	0x3cb680f5	0.022278288
132	0xbd9eeac2	-0.0775962
133	0x3d8f7d7d	0.07006357
134	0xbd695a7b	-0.056971055
135	0x3c7cf8ec	0.015440207
136	0xbd31920a	-0.043352164
137	0x3c1ec86d	0.00969134
138	0xbd79068d	-0.060797263
139	0x3d535775	0.051597077
140	0x3c9e91f2	0.019356702
141	0xbd967e89	-0.073483534
142	0xbcd9ed55	-0.026602427
143	0x3c811c2e	0.015760507
144	0x3d992ca3	0.07479217
145	0xbce04d3f	-0.027380584
146	0x3de01275	0.109410204
147	0xbcc7413a	-0.024323095
148	0x3d09d2cf	0.03364831
149	0xbce630e9	-0.028099494
150	0x3c844f7f	0.016151188
151	0x3dccc5eb	0.09998687
152	0x3c973194	0.018456258
153	0xbb2d139f	-0.00264094
154	0x3d762fb8	0.060104102
155	0x3d6f4176	0.058412038
156	0x3c1cd93c	0.009573277
157	0xbca5db07	-0.020246042
158	0x3d36eecd	0.044661332
159	0x3d5a2052	0.05325348
160	0xbc44005b	-0.011962975
161	0xbdbc9b4d	-0.09209309
162	0x3d8155a2	0.06315161
163	0xbd68b600	-0.056814194
164	0xbda5d3c3	-0.08097031
165	0x3bc798a2	0.0060911933
166	0x3ce61df8	0.028090462
167	0xbc2db7a1	-0.010602863
168	0xbd460c17	-0.048351374
169	0x3d4cf7e1	0.050041083
170	0x3d81f86a	0.06346209
171	0x3e081210	0.1328814
172	0xbca24665	-0.019808957
173	0xbbdc6a17	-0.006726514
174	0x3d1a3836	0.037651263
175	0xbd4977f1	-0.04918665
176	0x3d43dca1	0.04781783
177	0x3b4f1ac3	0.0031601645
178	0xbd1fa244	-0.038973108
179	0x3da5d186	0.08096604
180	0xbd58f383	-0.052966606
181	0xbd0f7609	-0.035024676
182	0xbdc909e3	-0.09816339
183	0xbd9a6d66	-0.07540397
184	0xbd239e8e	-0.03994613
185	0x3c22a274	0.009926427
186	0xbaa312ce	-0.0012441517
187	0xbdc66150	-0.0968653
188	0xbb41b580	-0.0029557645
189	0x3d0b2929	0.0339748
190	0x393fbeb0	0.00018286216
191	0x39101a86	0.00013742791
192	0x3c0d71c3	0.00863308
193	0x3d8a58ea	0.0675524
194	0x3d1bc3a7	0.038028385
195	0xbcb54bbf	-0.022130845
196	0x3cc4eb4e	0.024037983
197	0xbce065c2	-0.027392272
198	0xbceb493f	-0.02872145
199	0x3d3f9949	0.046777043
200	0xbc427a5e	-0.011869995
201	0x3d261526	0.040547512
202	0x3d346cc9	0.044049058
203	0x3c98498e	0.018589761
204	0x3c018231	0.007904575
205	0x3cf8ca32	0.030369852
206	0x3c6e29e3	0.014536354
207	0x3d22b140	0.03971982
208	0x3d8da09a	0.06915398
209	0x3ca1dbaf	0.019758074
210	0x3da8518e	0.0821868
211	0xbc7cdc48	-0.0154333785
212	0x3d82a676	0.06379406
213	0xbc2d23a3	-0.0105675785
214	0x3cd2a142	0.02571166
215	0xbc9ec6eb	-0.01938196
216	0xbd429169	-0.047501955
217	0x3d25ceda	0.040480472
218	0x3ce547e1	0.027988376
219	0xbd59964d	-0.053121854
220	0xbd4cbd86	-0.04998543
221	0xbc1a0353	-0.009400207
222	0x3d977438	0.07395214
223	0xbd1c735b	-0.03819595
224	0xbc8c0d46	-0.017096173
225	0x3ca32f5b	0.019920042
226	0xbd83e1da	-0.06439562
227	0x3d7ffadf	0.06249511
228	0xbd5298af	-0.05141514
229	0x3b49323f	0.0030700115
230	0xbd048c48	-0.032360345
231	0xbd36abe2	-0.044597514
232	0xbb9d8f79	-0.004808363
233	0xbc9b53ae	-0.0189608
234	0xbd40aa3b	-0.047037344
235	0x3ca763fd	0.02043342
236	0xbd2d4ccd	-0.04230957
237	0x3d2954cf	0.041340645
238	0x3cf0fb85	0.029416809
239	0xbdb02488	-0.08600718
240	0x3d938035	0.07202188
241	0x3d2099aa	0.039209045
242	0xbd63331b	-0.05546866
243	0xbcebee8d	-0.028800273
244	0xbc4ee085	-0.012626772
245	0x3a8678d2	0.0010259396
246	0x3d6033a2	0.05473674
247	0x3c86732f	0.016412346
248	0x3d3a44b9	0.045475695
249	0x3cbf0168	0.0233161
250	0x3be01b3c	0.006839184
251	0x3c4bc68d	0.012437475
252	0xbcd9cd2b	-0.02658709
253	0xbd3c4894	-0.045967653
254	0x3d63c54c	0.05560808
255	0xbd222c8b	-0.03959326

layers.4.bias f4 [100]
0	0xbdc34461	-0.095345266
1	0x3cb7fc58	0.022459194
2	0xbb219199	-0.0024653433
3	0x3d22d89b	0.039757352
4	0x3c37adb8	0.011210851
5	0x3e4a410e	0.19751379
6	0xbe119457	-0.14216743
7	0x3e105265	0.14093931
8	0xbdea25c1	-0.11432982
9	0x3cc2ea14	0.023793258
10	0x3ca415b7	0.020029886
11	0xbd45adfd	-0.04826163
12	0x3c9aec46	0.018911492
13	0x3da20d6f	0.079127185
14	0x3dad3b99	0.08458633
15	0xbd88b35c	-0.06674835
16	0x3d4a3d99	0.04937515
17	0x3e3adebb	0.18249027
18	0xbd6b1007	-0.05738833
19	0x3bbf4d36	0.0058380617
20	0xbe2d71b1	-0.16937901
21	0xbd48db83	-0.049037468
22	0xbdc29e3a	-0.095028356
23	0x3e24c1ca	0.1608955
24	0x3d84b53b	0.064798795
25	0xbdc0cf20	-0.09414506
26	0x3e800012	0.25000054
27	0xbc4c824a	-0.012482235
28	0x3df961ec	0.1217688
29	0x3e1cad28	0.15300429
30	0x3e342cfb	0.17595284
31	0xbdce2fc2	-0.10067703
32	0x3e112fba	0.14178362
33	0x3bcf5e83	0.0063284053
34	0xbdbcb6de	-0.09214567
35	0xbddc9d14	-0.10772148
36	0xbced82df	-0.028993068
37	0xbdc14db9	-0.094386525
38	0xbc7f89a7	-0.015596784
39	0xbd44849e	-0.047978036
40	0x3c59da9a	0.013296748
41	0x3d101a1b	0.035181146
42	0x3e505ef2	0.20348719
43	0x3de43ecc	0.1114479
44	0x3e170392	0.14747456
45	0x3df42423	0.11920955
46	0xbde7a111	-0.11310018
47	0xbb602074	-0.003419903
48	0x3da3542c	0.07975039
49	0xbe218ca4	-0.15776306
50	0xbd37abb4	-0.044841483
51	0xbd6ad9f1	-0.05733675
52	0xbe010fdc	-0.12603706
53	0xbd6c2a52	-0.057657547
54	0xbcd41ec4	-0.025893576
55	0xbdc1388a	-0.09434612
56	0x3d64f6d1	0.055899445
57	0x3d349ebb	0.04409669
58	0xbe29dbfa	-0.1658782
59	0xbcb2cbb3	-0.021825647
60	0x3d167242	0.03673006
61	0x3de76139	0.112978406
62	0x3e08bc4f	0.13353084
63	0x3da685b3	0.0813097
64	0xbd1d8238	-0.038454264
65	0xbc30f7bb	-0.010801251
66	0xbd8f1666	-0.06986694
67	0xbd9424e7	-0.07233601
68	0x3e2ba979	0.16763867
69	0x3dc40b3e	0.09572457
70	0x3e01a440	0.12660313
71	0x3deb11d9	0.114780135
72	0x3de70205	0.11279682
73	0x3e633cf8	0.22191226
74	0x3e3071db	0.17230932
75	0x3da5acb6	0.080895826
76	0xbdbbd801	-0.09172059
77	0x3e069544	0.13142878
78	0x3e2ca2fa	0.16859046
79	0xbe13cd27	-0.14433728
80	0x3e0363df	0.12831067
81	0x3d128dbe	0.035779707
82	0x3db72df1	0.089443095
83	0xbe30b40b	-0.17256181
84	0x3e0415f2	0.12898996
85	0x3e4f4abb	0.20243351
86	0x3c88a5fb	0.016680708
87	0x3e080d3c	0.13286299
88	0xbe140a98	-0.14457166
89	0xbd3f1e08	-0.0466595
90	0x3d7fc253	0.06244118
91	0xbd0c4338	-0.034243792
92	0x3e8596a2	0.26091486
93	0x3dc46366	0.09589271
94	0x3e0d9978	0.13828075
95	0x3e20e0e3	0.15710787
96	0xbdb83cae	-0.08995949
97	0x3dffa607	0.12482839
98	0x3dd9f4cf	0.10642397
99	0x3dc7e8ed	0.09761224
